{
  "storage" : "model.espresso.weights",
  "properties" : {

  },
  "format_version" : 200,
  "layers" : [
    {
      "alpha" : 0.33525252342224121,
      "bottom" : "input1",
      "operation" : 3,
      "weights" : {

      },
      "fused_relu" : 0,
      "top" : "input1__fix__underflow_____Conv1",
      "type" : "elementwise",
      "name" : "Conv1__fix__underflow___",
      "beta" : 0
    },
    {
      "pad_r" : 1,
      "fused_relu" : 0,
      "fused_tanh" : 0,
      "pad_fill_mode" : 0,
      "pad_b" : 1,
      "pad_l" : 0,
      "top" : "bn_Conv1_output",
      "blob_weights" : 3,
      "K" : 3,
      "blob_biases" : 1,
      "stride_x" : 2,
      "name" : "Conv1",
      "has_batch_norm" : 0,
      "type" : "convolution",
      "n_groups" : 1,
      "pad_t" : 0,
      "stride_y" : 2,
      "has_biases" : 1,
      "C" : 16,
      "bottom" : "input1__fix__underflow_____Conv1",
      "weights" : {

      },
      "Nx" : 3,
      "pad_mode" : 0,
      "pad_value" : 0,
      "Ny" : 3,
      "n_parallel" : 1
    },
    {
      "mode" : 4,
      "weights" : {
        "params_prelu" : 5
      },
      "top" : "Conv1_relu_output",
      "type" : "activation",
      "name" : "Conv1_relu",
      "bottom" : "bn_Conv1_output"
    },
    {
      "pad_r" : 0,
      "fused_relu" : 0,
      "fused_tanh" : 0,
      "pad_fill_mode" : 0,
      "pad_b" : 0,
      "pad_l" : 0,
      "top" : "expanded_conv_depthwise_BN_output",
      "blob_weights" : 9,
      "K" : 16,
      "blob_biases" : 7,
      "name" : "expanded_conv_depthwise",
      "has_batch_norm" : 0,
      "type" : "convolution",
      "n_groups" : 16,
      "pad_t" : 0,
      "has_biases" : 1,
      "C" : 16,
      "bottom" : "Conv1_relu_output",
      "weights" : {

      },
      "pad_mode" : 1,
      "Nx" : 3,
      "pad_value" : 0,
      "Ny" : 3,
      "n_parallel" : 1
    },
    {
      "mode" : 4,
      "weights" : {
        "params_prelu" : 11
      },
      "top" : "expanded_conv_depthwise_relu_output",
      "type" : "activation",
      "name" : "expanded_conv_depthwise_relu",
      "bottom" : "expanded_conv_depthwise_BN_output"
    },
    {
      "pad_r" : 0,
      "fused_relu" : 0,
      "fused_tanh" : 0,
      "pad_fill_mode" : 0,
      "pad_b" : 0,
      "pad_l" : 0,
      "top" : "expanded_conv_project_BN_output",
      "blob_weights" : 15,
      "K" : 16,
      "blob_biases" : 13,
      "name" : "expanded_conv_project",
      "has_batch_norm" : 0,
      "type" : "convolution",
      "n_groups" : 1,
      "pad_t" : 0,
      "has_biases" : 1,
      "C" : 8,
      "bottom" : "expanded_conv_depthwise_relu_output",
      "weights" : {

      },
      "pad_mode" : 1,
      "Nx" : 1,
      "pad_value" : 0,
      "Ny" : 1,
      "n_parallel" : 1
    },
    {
      "pad_r" : 0,
      "fused_relu" : 0,
      "fused_tanh" : 0,
      "pad_fill_mode" : 0,
      "pad_b" : 0,
      "pad_l" : 0,
      "top" : "block_1_expand_BN_output",
      "blob_weights" : 19,
      "K" : 8,
      "blob_biases" : 17,
      "name" : "block_1_expand",
      "has_batch_norm" : 0,
      "type" : "convolution",
      "n_groups" : 1,
      "pad_t" : 0,
      "has_biases" : 1,
      "C" : 48,
      "bottom" : "expanded_conv_project_BN_output",
      "weights" : {

      },
      "pad_mode" : 1,
      "Nx" : 1,
      "pad_value" : 0,
      "Ny" : 1,
      "n_parallel" : 1
    },
    {
      "mode" : 4,
      "weights" : {
        "params_prelu" : 21
      },
      "top" : "block_1_expand_relu_output",
      "type" : "activation",
      "name" : "block_1_expand_relu",
      "bottom" : "block_1_expand_BN_output"
    },
    {
      "pad_r" : 1,
      "fused_relu" : 0,
      "fused_tanh" : 0,
      "pad_fill_mode" : 0,
      "pad_b" : 1,
      "pad_l" : 0,
      "top" : "block_1_depthwise_BN_output",
      "blob_weights" : 25,
      "K" : 48,
      "blob_biases" : 23,
      "stride_x" : 2,
      "name" : "block_1_depthwise",
      "has_batch_norm" : 0,
      "type" : "convolution",
      "n_groups" : 48,
      "pad_t" : 0,
      "stride_y" : 2,
      "has_biases" : 1,
      "C" : 48,
      "bottom" : "block_1_expand_relu_output",
      "weights" : {

      },
      "Nx" : 3,
      "pad_mode" : 0,
      "pad_value" : 0,
      "Ny" : 3,
      "n_parallel" : 1
    },
    {
      "mode" : 4,
      "weights" : {
        "params_prelu" : 27
      },
      "top" : "block_1_depthwise_relu_output",
      "type" : "activation",
      "name" : "block_1_depthwise_relu",
      "bottom" : "block_1_depthwise_BN_output"
    },
    {
      "pad_r" : 0,
      "fused_relu" : 0,
      "fused_tanh" : 0,
      "pad_fill_mode" : 0,
      "pad_b" : 0,
      "pad_l" : 0,
      "top" : "block_1_project_BN_output",
      "blob_weights" : 31,
      "K" : 48,
      "blob_biases" : 29,
      "name" : "block_1_project",
      "has_batch_norm" : 0,
      "type" : "convolution",
      "n_groups" : 1,
      "pad_t" : 0,
      "has_biases" : 1,
      "C" : 8,
      "bottom" : "block_1_depthwise_relu_output",
      "weights" : {

      },
      "pad_mode" : 1,
      "Nx" : 1,
      "pad_value" : 0,
      "Ny" : 1,
      "n_parallel" : 1
    },
    {
      "pad_r" : 0,
      "fused_relu" : 0,
      "fused_tanh" : 0,
      "pad_fill_mode" : 0,
      "pad_b" : 0,
      "pad_l" : 0,
      "top" : "block_2_expand_BN_output",
      "blob_weights" : 35,
      "K" : 8,
      "blob_biases" : 33,
      "name" : "block_2_expand",
      "has_batch_norm" : 0,
      "type" : "convolution",
      "n_groups" : 1,
      "pad_t" : 0,
      "has_biases" : 1,
      "C" : 48,
      "bottom" : "block_1_project_BN_output",
      "weights" : {

      },
      "pad_mode" : 1,
      "Nx" : 1,
      "pad_value" : 0,
      "Ny" : 1,
      "n_parallel" : 1
    },
    {
      "mode" : 4,
      "weights" : {
        "params_prelu" : 37
      },
      "top" : "block_2_expand_relu_output",
      "type" : "activation",
      "name" : "block_2_expand_relu",
      "bottom" : "block_2_expand_BN_output"
    },
    {
      "pad_r" : 0,
      "fused_relu" : 0,
      "fused_tanh" : 0,
      "pad_fill_mode" : 0,
      "pad_b" : 0,
      "pad_l" : 0,
      "top" : "block_2_depthwise_BN_output",
      "blob_weights" : 41,
      "K" : 48,
      "blob_biases" : 39,
      "name" : "block_2_depthwise",
      "has_batch_norm" : 0,
      "type" : "convolution",
      "n_groups" : 48,
      "pad_t" : 0,
      "has_biases" : 1,
      "C" : 48,
      "bottom" : "block_2_expand_relu_output",
      "weights" : {

      },
      "pad_mode" : 1,
      "Nx" : 3,
      "pad_value" : 0,
      "Ny" : 3,
      "n_parallel" : 1
    },
    {
      "mode" : 4,
      "weights" : {
        "params_prelu" : 43
      },
      "top" : "block_2_depthwise_relu_output",
      "type" : "activation",
      "name" : "block_2_depthwise_relu",
      "bottom" : "block_2_depthwise_BN_output"
    },
    {
      "pad_r" : 0,
      "fused_relu" : 0,
      "fused_tanh" : 0,
      "pad_fill_mode" : 0,
      "pad_b" : 0,
      "pad_l" : 0,
      "top" : "block_2_project_BN_output",
      "blob_weights" : 47,
      "K" : 48,
      "blob_biases" : 45,
      "name" : "block_2_project",
      "has_batch_norm" : 0,
      "type" : "convolution",
      "n_groups" : 1,
      "pad_t" : 0,
      "has_biases" : 1,
      "C" : 8,
      "bottom" : "block_2_depthwise_relu_output",
      "weights" : {

      },
      "pad_mode" : 1,
      "Nx" : 1,
      "pad_value" : 0,
      "Ny" : 1,
      "n_parallel" : 1
    },
    {
      "alpha" : 1,
      "bottom" : "block_1_project_BN_output,block_2_project_BN_output",
      "operation" : 0,
      "weights" : {

      },
      "fused_relu" : 0,
      "top" : "block_2_add_output",
      "type" : "elementwise",
      "name" : "block_2_add",
      "beta" : 0
    },
    {
      "pad_r" : 0,
      "fused_relu" : 0,
      "fused_tanh" : 0,
      "pad_fill_mode" : 0,
      "pad_b" : 0,
      "pad_l" : 0,
      "top" : "block_3_expand_BN_output",
      "blob_weights" : 51,
      "K" : 8,
      "blob_biases" : 49,
      "name" : "block_3_expand",
      "has_batch_norm" : 0,
      "type" : "convolution",
      "n_groups" : 1,
      "pad_t" : 0,
      "has_biases" : 1,
      "C" : 48,
      "bottom" : "block_2_add_output",
      "weights" : {

      },
      "pad_mode" : 1,
      "Nx" : 1,
      "pad_value" : 0,
      "Ny" : 1,
      "n_parallel" : 1
    },
    {
      "mode" : 4,
      "weights" : {
        "params_prelu" : 53
      },
      "top" : "block_3_expand_relu_output",
      "type" : "activation",
      "name" : "block_3_expand_relu",
      "bottom" : "block_3_expand_BN_output"
    },
    {
      "pad_r" : 1,
      "fused_relu" : 0,
      "fused_tanh" : 0,
      "pad_fill_mode" : 0,
      "pad_b" : 1,
      "pad_l" : 0,
      "top" : "block_3_depthwise_BN_output",
      "blob_weights" : 57,
      "K" : 48,
      "blob_biases" : 55,
      "stride_x" : 2,
      "name" : "block_3_depthwise",
      "has_batch_norm" : 0,
      "type" : "convolution",
      "n_groups" : 48,
      "pad_t" : 0,
      "stride_y" : 2,
      "has_biases" : 1,
      "C" : 48,
      "bottom" : "block_3_expand_relu_output",
      "weights" : {

      },
      "Nx" : 3,
      "pad_mode" : 0,
      "pad_value" : 0,
      "Ny" : 3,
      "n_parallel" : 1
    },
    {
      "mode" : 4,
      "weights" : {
        "params_prelu" : 59
      },
      "top" : "block_3_depthwise_relu_output",
      "type" : "activation",
      "name" : "block_3_depthwise_relu",
      "bottom" : "block_3_depthwise_BN_output"
    },
    {
      "pad_r" : 0,
      "fused_relu" : 0,
      "fused_tanh" : 0,
      "pad_fill_mode" : 0,
      "pad_b" : 0,
      "pad_l" : 0,
      "top" : "block_3_project_BN_output",
      "blob_weights" : 63,
      "K" : 48,
      "blob_biases" : 61,
      "name" : "block_3_project",
      "has_batch_norm" : 0,
      "type" : "convolution",
      "n_groups" : 1,
      "pad_t" : 0,
      "has_biases" : 1,
      "C" : 16,
      "bottom" : "block_3_depthwise_relu_output",
      "weights" : {

      },
      "pad_mode" : 1,
      "Nx" : 1,
      "pad_value" : 0,
      "Ny" : 1,
      "n_parallel" : 1
    },
    {
      "pad_r" : 0,
      "fused_relu" : 0,
      "fused_tanh" : 0,
      "pad_fill_mode" : 0,
      "pad_b" : 0,
      "pad_l" : 0,
      "top" : "Cont_block_4_expand_BN_output",
      "blob_weights" : 67,
      "K" : 16,
      "blob_biases" : 65,
      "name" : "Cont_block_4_expand",
      "has_batch_norm" : 0,
      "type" : "convolution",
      "n_groups" : 1,
      "pad_t" : 0,
      "has_biases" : 1,
      "C" : 96,
      "bottom" : "block_3_project_BN_output",
      "weights" : {

      },
      "pad_mode" : 1,
      "Nx" : 1,
      "pad_value" : 0,
      "Ny" : 1,
      "n_parallel" : 1
    },
    {
      "pad_r" : 0,
      "fused_relu" : 0,
      "fused_tanh" : 0,
      "pad_fill_mode" : 0,
      "pad_b" : 0,
      "pad_l" : 0,
      "top" : "Lips_block_4_expand_BN_output",
      "blob_weights" : 71,
      "K" : 16,
      "blob_biases" : 69,
      "name" : "Lips_block_4_expand",
      "has_batch_norm" : 0,
      "type" : "convolution",
      "n_groups" : 1,
      "pad_t" : 0,
      "has_biases" : 1,
      "C" : 96,
      "bottom" : "block_3_project_BN_output",
      "weights" : {

      },
      "pad_mode" : 1,
      "Nx" : 1,
      "pad_value" : 0,
      "Ny" : 1,
      "n_parallel" : 1
    },
    {
      "pad_r" : 0,
      "fused_relu" : 0,
      "fused_tanh" : 0,
      "pad_fill_mode" : 0,
      "pad_b" : 0,
      "pad_l" : 0,
      "top" : "RE_block_4_expand_BN_output",
      "blob_weights" : 75,
      "K" : 16,
      "blob_biases" : 73,
      "name" : "RE_block_4_expand",
      "has_batch_norm" : 0,
      "type" : "convolution",
      "n_groups" : 1,
      "pad_t" : 0,
      "has_biases" : 1,
      "C" : 96,
      "bottom" : "block_3_project_BN_output",
      "weights" : {

      },
      "pad_mode" : 1,
      "Nx" : 1,
      "pad_value" : 0,
      "Ny" : 1,
      "n_parallel" : 1
    },
    {
      "pad_r" : 0,
      "fused_relu" : 0,
      "fused_tanh" : 0,
      "pad_fill_mode" : 0,
      "pad_b" : 0,
      "pad_l" : 0,
      "top" : "LE_block_4_expand_BN_output",
      "blob_weights" : 79,
      "K" : 16,
      "blob_biases" : 77,
      "name" : "LE_block_4_expand",
      "has_batch_norm" : 0,
      "type" : "convolution",
      "n_groups" : 1,
      "pad_t" : 0,
      "has_biases" : 1,
      "C" : 96,
      "bottom" : "block_3_project_BN_output",
      "weights" : {

      },
      "pad_mode" : 1,
      "Nx" : 1,
      "pad_value" : 0,
      "Ny" : 1,
      "n_parallel" : 1
    },
    {
      "mode" : 4,
      "weights" : {
        "params_prelu" : 81
      },
      "top" : "Cont_block_4_expand_relu_output",
      "type" : "activation",
      "name" : "Cont_block_4_expand_relu",
      "bottom" : "Cont_block_4_expand_BN_output"
    },
    {
      "mode" : 4,
      "weights" : {
        "params_prelu" : 83
      },
      "top" : "Lips_block_4_expand_relu_output",
      "type" : "activation",
      "name" : "Lips_block_4_expand_relu",
      "bottom" : "Lips_block_4_expand_BN_output"
    },
    {
      "mode" : 4,
      "weights" : {
        "params_prelu" : 85
      },
      "top" : "RE_block_4_expand_relu_output",
      "type" : "activation",
      "name" : "RE_block_4_expand_relu",
      "bottom" : "RE_block_4_expand_BN_output"
    },
    {
      "mode" : 4,
      "weights" : {
        "params_prelu" : 87
      },
      "top" : "LE_block_4_expand_relu_output",
      "type" : "activation",
      "name" : "LE_block_4_expand_relu",
      "bottom" : "LE_block_4_expand_BN_output"
    },
    {
      "pad_r" : 0,
      "fused_relu" : 0,
      "fused_tanh" : 0,
      "pad_fill_mode" : 0,
      "pad_b" : 0,
      "pad_l" : 0,
      "top" : "Cont_block_4_depthwise_BN_output",
      "blob_weights" : 91,
      "K" : 96,
      "blob_biases" : 89,
      "name" : "Cont_block_4_depthwise",
      "has_batch_norm" : 0,
      "type" : "convolution",
      "n_groups" : 96,
      "pad_t" : 0,
      "has_biases" : 1,
      "C" : 96,
      "bottom" : "Cont_block_4_expand_relu_output",
      "weights" : {

      },
      "pad_mode" : 1,
      "Nx" : 3,
      "pad_value" : 0,
      "Ny" : 3,
      "n_parallel" : 1
    },
    {
      "pad_r" : 0,
      "fused_relu" : 0,
      "fused_tanh" : 0,
      "pad_fill_mode" : 0,
      "pad_b" : 0,
      "pad_l" : 0,
      "top" : "Lips_block_4_depthwise_BN_output",
      "blob_weights" : 95,
      "K" : 96,
      "blob_biases" : 93,
      "name" : "Lips_block_4_depthwise",
      "has_batch_norm" : 0,
      "type" : "convolution",
      "n_groups" : 96,
      "pad_t" : 0,
      "has_biases" : 1,
      "C" : 96,
      "bottom" : "Lips_block_4_expand_relu_output",
      "weights" : {

      },
      "pad_mode" : 1,
      "Nx" : 3,
      "pad_value" : 0,
      "Ny" : 3,
      "n_parallel" : 1
    },
    {
      "pad_r" : 0,
      "fused_relu" : 0,
      "fused_tanh" : 0,
      "pad_fill_mode" : 0,
      "pad_b" : 0,
      "pad_l" : 0,
      "top" : "RE_block_4_depthwise_BN_output",
      "blob_weights" : 99,
      "K" : 96,
      "blob_biases" : 97,
      "name" : "RE_block_4_depthwise",
      "has_batch_norm" : 0,
      "type" : "convolution",
      "n_groups" : 96,
      "pad_t" : 0,
      "has_biases" : 1,
      "C" : 96,
      "bottom" : "RE_block_4_expand_relu_output",
      "weights" : {

      },
      "pad_mode" : 1,
      "Nx" : 3,
      "pad_value" : 0,
      "Ny" : 3,
      "n_parallel" : 1
    },
    {
      "pad_r" : 0,
      "fused_relu" : 0,
      "fused_tanh" : 0,
      "pad_fill_mode" : 0,
      "pad_b" : 0,
      "pad_l" : 0,
      "top" : "LE_block_4_depthwise_BN_output",
      "blob_weights" : 103,
      "K" : 96,
      "blob_biases" : 101,
      "name" : "LE_block_4_depthwise",
      "has_batch_norm" : 0,
      "type" : "convolution",
      "n_groups" : 96,
      "pad_t" : 0,
      "has_biases" : 1,
      "C" : 96,
      "bottom" : "LE_block_4_expand_relu_output",
      "weights" : {

      },
      "pad_mode" : 1,
      "Nx" : 3,
      "pad_value" : 0,
      "Ny" : 3,
      "n_parallel" : 1
    },
    {
      "mode" : 4,
      "weights" : {
        "params_prelu" : 105
      },
      "top" : "Cont_block_4_depthwise_relu_output",
      "type" : "activation",
      "name" : "Cont_block_4_depthwise_relu",
      "bottom" : "Cont_block_4_depthwise_BN_output"
    },
    {
      "mode" : 4,
      "weights" : {
        "params_prelu" : 107
      },
      "top" : "Lips_block_4_depthwise_relu_output",
      "type" : "activation",
      "name" : "Lips_block_4_depthwise_relu",
      "bottom" : "Lips_block_4_depthwise_BN_output"
    },
    {
      "mode" : 4,
      "weights" : {
        "params_prelu" : 109
      },
      "top" : "RE_block_4_depthwise_relu_output",
      "type" : "activation",
      "name" : "RE_block_4_depthwise_relu",
      "bottom" : "RE_block_4_depthwise_BN_output"
    },
    {
      "mode" : 4,
      "weights" : {
        "params_prelu" : 111
      },
      "top" : "LE_block_4_depthwise_relu_output",
      "type" : "activation",
      "name" : "LE_block_4_depthwise_relu",
      "bottom" : "LE_block_4_depthwise_BN_output"
    },
    {
      "pad_r" : 0,
      "fused_relu" : 0,
      "fused_tanh" : 0,
      "pad_fill_mode" : 0,
      "pad_b" : 0,
      "pad_l" : 0,
      "top" : "Cont_block_4_project_BN_output",
      "blob_weights" : 115,
      "K" : 96,
      "blob_biases" : 113,
      "name" : "Cont_block_4_project",
      "has_batch_norm" : 0,
      "type" : "convolution",
      "n_groups" : 1,
      "pad_t" : 0,
      "has_biases" : 1,
      "C" : 8,
      "bottom" : "Cont_block_4_depthwise_relu_output",
      "weights" : {

      },
      "pad_mode" : 1,
      "Nx" : 1,
      "pad_value" : 0,
      "Ny" : 1,
      "n_parallel" : 1
    },
    {
      "pad_r" : 0,
      "fused_relu" : 0,
      "fused_tanh" : 0,
      "pad_fill_mode" : 0,
      "pad_b" : 0,
      "pad_l" : 0,
      "top" : "Lips_block_4_project_BN_output",
      "blob_weights" : 119,
      "K" : 96,
      "blob_biases" : 117,
      "name" : "Lips_block_4_project",
      "has_batch_norm" : 0,
      "type" : "convolution",
      "n_groups" : 1,
      "pad_t" : 0,
      "has_biases" : 1,
      "C" : 8,
      "bottom" : "Lips_block_4_depthwise_relu_output",
      "weights" : {

      },
      "pad_mode" : 1,
      "Nx" : 1,
      "pad_value" : 0,
      "Ny" : 1,
      "n_parallel" : 1
    },
    {
      "pad_r" : 0,
      "fused_relu" : 0,
      "fused_tanh" : 0,
      "pad_fill_mode" : 0,
      "pad_b" : 0,
      "pad_l" : 0,
      "top" : "RE_block_4_project_BN_output",
      "blob_weights" : 123,
      "K" : 96,
      "blob_biases" : 121,
      "name" : "RE_block_4_project",
      "has_batch_norm" : 0,
      "type" : "convolution",
      "n_groups" : 1,
      "pad_t" : 0,
      "has_biases" : 1,
      "C" : 8,
      "bottom" : "RE_block_4_depthwise_relu_output",
      "weights" : {

      },
      "pad_mode" : 1,
      "Nx" : 1,
      "pad_value" : 0,
      "Ny" : 1,
      "n_parallel" : 1
    },
    {
      "pad_r" : 0,
      "fused_relu" : 0,
      "fused_tanh" : 0,
      "pad_fill_mode" : 0,
      "pad_b" : 0,
      "pad_l" : 0,
      "top" : "LE_block_4_project_BN_output",
      "blob_weights" : 127,
      "K" : 96,
      "blob_biases" : 125,
      "name" : "LE_block_4_project",
      "has_batch_norm" : 0,
      "type" : "convolution",
      "n_groups" : 1,
      "pad_t" : 0,
      "has_biases" : 1,
      "C" : 8,
      "bottom" : "LE_block_4_depthwise_relu_output",
      "weights" : {

      },
      "pad_mode" : 1,
      "Nx" : 1,
      "pad_value" : 0,
      "Ny" : 1,
      "n_parallel" : 1
    },
    {
      "pad_r" : 0,
      "fused_relu" : 0,
      "fused_tanh" : 0,
      "pad_fill_mode" : 0,
      "pad_b" : 0,
      "pad_l" : 0,
      "top" : "Cont_block_5_expand_BN_output",
      "blob_weights" : 131,
      "K" : 8,
      "blob_biases" : 129,
      "name" : "Cont_block_5_expand",
      "has_batch_norm" : 0,
      "type" : "convolution",
      "n_groups" : 1,
      "pad_t" : 0,
      "has_biases" : 1,
      "C" : 48,
      "bottom" : "Cont_block_4_project_BN_output",
      "weights" : {

      },
      "pad_mode" : 1,
      "Nx" : 1,
      "pad_value" : 0,
      "Ny" : 1,
      "n_parallel" : 1
    },
    {
      "pad_r" : 0,
      "fused_relu" : 0,
      "fused_tanh" : 0,
      "pad_fill_mode" : 0,
      "pad_b" : 0,
      "pad_l" : 0,
      "top" : "Lips_block_5_expand_BN_output",
      "blob_weights" : 135,
      "K" : 8,
      "blob_biases" : 133,
      "name" : "Lips_block_5_expand",
      "has_batch_norm" : 0,
      "type" : "convolution",
      "n_groups" : 1,
      "pad_t" : 0,
      "has_biases" : 1,
      "C" : 48,
      "bottom" : "Lips_block_4_project_BN_output",
      "weights" : {

      },
      "pad_mode" : 1,
      "Nx" : 1,
      "pad_value" : 0,
      "Ny" : 1,
      "n_parallel" : 1
    },
    {
      "pad_r" : 0,
      "fused_relu" : 0,
      "fused_tanh" : 0,
      "pad_fill_mode" : 0,
      "pad_b" : 0,
      "pad_l" : 0,
      "top" : "RE_block_5_expand_BN_output",
      "blob_weights" : 139,
      "K" : 8,
      "blob_biases" : 137,
      "name" : "RE_block_5_expand",
      "has_batch_norm" : 0,
      "type" : "convolution",
      "n_groups" : 1,
      "pad_t" : 0,
      "has_biases" : 1,
      "C" : 48,
      "bottom" : "RE_block_4_project_BN_output",
      "weights" : {

      },
      "pad_mode" : 1,
      "Nx" : 1,
      "pad_value" : 0,
      "Ny" : 1,
      "n_parallel" : 1
    },
    {
      "pad_r" : 0,
      "fused_relu" : 0,
      "fused_tanh" : 0,
      "pad_fill_mode" : 0,
      "pad_b" : 0,
      "pad_l" : 0,
      "top" : "LE_block_5_expand_BN_output",
      "blob_weights" : 143,
      "K" : 8,
      "blob_biases" : 141,
      "name" : "LE_block_5_expand",
      "has_batch_norm" : 0,
      "type" : "convolution",
      "n_groups" : 1,
      "pad_t" : 0,
      "has_biases" : 1,
      "C" : 48,
      "bottom" : "LE_block_4_project_BN_output",
      "weights" : {

      },
      "pad_mode" : 1,
      "Nx" : 1,
      "pad_value" : 0,
      "Ny" : 1,
      "n_parallel" : 1
    },
    {
      "mode" : 4,
      "weights" : {
        "params_prelu" : 145
      },
      "top" : "Cont_block_5_expand_relu_output",
      "type" : "activation",
      "name" : "Cont_block_5_expand_relu",
      "bottom" : "Cont_block_5_expand_BN_output"
    },
    {
      "mode" : 4,
      "weights" : {
        "params_prelu" : 147
      },
      "top" : "Lips_block_5_expand_relu_output",
      "type" : "activation",
      "name" : "Lips_block_5_expand_relu",
      "bottom" : "Lips_block_5_expand_BN_output"
    },
    {
      "mode" : 4,
      "weights" : {
        "params_prelu" : 149
      },
      "top" : "RE_block_5_expand_relu_output",
      "type" : "activation",
      "name" : "RE_block_5_expand_relu",
      "bottom" : "RE_block_5_expand_BN_output"
    },
    {
      "mode" : 4,
      "weights" : {
        "params_prelu" : 151
      },
      "top" : "LE_block_5_expand_relu_output",
      "type" : "activation",
      "name" : "LE_block_5_expand_relu",
      "bottom" : "LE_block_5_expand_BN_output"
    },
    {
      "pad_r" : 0,
      "fused_relu" : 0,
      "fused_tanh" : 0,
      "pad_fill_mode" : 0,
      "pad_b" : 0,
      "pad_l" : 0,
      "top" : "Cont_block_5_depthwise_BN_output",
      "blob_weights" : 155,
      "K" : 48,
      "blob_biases" : 153,
      "name" : "Cont_block_5_depthwise",
      "has_batch_norm" : 0,
      "type" : "convolution",
      "n_groups" : 48,
      "pad_t" : 0,
      "has_biases" : 1,
      "C" : 48,
      "bottom" : "Cont_block_5_expand_relu_output",
      "weights" : {

      },
      "pad_mode" : 1,
      "Nx" : 3,
      "pad_value" : 0,
      "Ny" : 3,
      "n_parallel" : 1
    },
    {
      "pad_r" : 0,
      "fused_relu" : 0,
      "fused_tanh" : 0,
      "pad_fill_mode" : 0,
      "pad_b" : 0,
      "pad_l" : 0,
      "top" : "Lips_block_5_depthwise_BN_output",
      "blob_weights" : 159,
      "K" : 48,
      "blob_biases" : 157,
      "name" : "Lips_block_5_depthwise",
      "has_batch_norm" : 0,
      "type" : "convolution",
      "n_groups" : 48,
      "pad_t" : 0,
      "has_biases" : 1,
      "C" : 48,
      "bottom" : "Lips_block_5_expand_relu_output",
      "weights" : {

      },
      "pad_mode" : 1,
      "Nx" : 3,
      "pad_value" : 0,
      "Ny" : 3,
      "n_parallel" : 1
    },
    {
      "pad_r" : 0,
      "fused_relu" : 0,
      "fused_tanh" : 0,
      "pad_fill_mode" : 0,
      "pad_b" : 0,
      "pad_l" : 0,
      "top" : "RE_block_5_depthwise_BN_output",
      "blob_weights" : 163,
      "K" : 48,
      "blob_biases" : 161,
      "name" : "RE_block_5_depthwise",
      "has_batch_norm" : 0,
      "type" : "convolution",
      "n_groups" : 48,
      "pad_t" : 0,
      "has_biases" : 1,
      "C" : 48,
      "bottom" : "RE_block_5_expand_relu_output",
      "weights" : {

      },
      "pad_mode" : 1,
      "Nx" : 3,
      "pad_value" : 0,
      "Ny" : 3,
      "n_parallel" : 1
    },
    {
      "pad_r" : 0,
      "fused_relu" : 0,
      "fused_tanh" : 0,
      "pad_fill_mode" : 0,
      "pad_b" : 0,
      "pad_l" : 0,
      "top" : "LE_block_5_depthwise_BN_output",
      "blob_weights" : 167,
      "K" : 48,
      "blob_biases" : 165,
      "name" : "LE_block_5_depthwise",
      "has_batch_norm" : 0,
      "type" : "convolution",
      "n_groups" : 48,
      "pad_t" : 0,
      "has_biases" : 1,
      "C" : 48,
      "bottom" : "LE_block_5_expand_relu_output",
      "weights" : {

      },
      "pad_mode" : 1,
      "Nx" : 3,
      "pad_value" : 0,
      "Ny" : 3,
      "n_parallel" : 1
    },
    {
      "mode" : 4,
      "weights" : {
        "params_prelu" : 169
      },
      "top" : "Cont_block_5_depthwise_relu_output",
      "type" : "activation",
      "name" : "Cont_block_5_depthwise_relu",
      "bottom" : "Cont_block_5_depthwise_BN_output"
    },
    {
      "mode" : 4,
      "weights" : {
        "params_prelu" : 171
      },
      "top" : "Lips_block_5_depthwise_relu_output",
      "type" : "activation",
      "name" : "Lips_block_5_depthwise_relu",
      "bottom" : "Lips_block_5_depthwise_BN_output"
    },
    {
      "mode" : 4,
      "weights" : {
        "params_prelu" : 173
      },
      "top" : "RE_block_5_depthwise_relu_output",
      "type" : "activation",
      "name" : "RE_block_5_depthwise_relu",
      "bottom" : "RE_block_5_depthwise_BN_output"
    },
    {
      "mode" : 4,
      "weights" : {
        "params_prelu" : 175
      },
      "top" : "LE_block_5_depthwise_relu_output",
      "type" : "activation",
      "name" : "LE_block_5_depthwise_relu",
      "bottom" : "LE_block_5_depthwise_BN_output"
    },
    {
      "pad_r" : 0,
      "fused_relu" : 0,
      "fused_tanh" : 0,
      "pad_fill_mode" : 0,
      "pad_b" : 0,
      "pad_l" : 0,
      "top" : "Cont_block_5_project_BN_output",
      "blob_weights" : 179,
      "K" : 48,
      "blob_biases" : 177,
      "name" : "Cont_block_5_project",
      "has_batch_norm" : 0,
      "type" : "convolution",
      "n_groups" : 1,
      "pad_t" : 0,
      "has_biases" : 1,
      "C" : 8,
      "bottom" : "Cont_block_5_depthwise_relu_output",
      "weights" : {

      },
      "pad_mode" : 1,
      "Nx" : 1,
      "pad_value" : 0,
      "Ny" : 1,
      "n_parallel" : 1
    },
    {
      "pad_r" : 0,
      "fused_relu" : 0,
      "fused_tanh" : 0,
      "pad_fill_mode" : 0,
      "pad_b" : 0,
      "pad_l" : 0,
      "top" : "Lips_block_5_project_BN_output",
      "blob_weights" : 183,
      "K" : 48,
      "blob_biases" : 181,
      "name" : "Lips_block_5_project",
      "has_batch_norm" : 0,
      "type" : "convolution",
      "n_groups" : 1,
      "pad_t" : 0,
      "has_biases" : 1,
      "C" : 8,
      "bottom" : "Lips_block_5_depthwise_relu_output",
      "weights" : {

      },
      "pad_mode" : 1,
      "Nx" : 1,
      "pad_value" : 0,
      "Ny" : 1,
      "n_parallel" : 1
    },
    {
      "pad_r" : 0,
      "fused_relu" : 0,
      "fused_tanh" : 0,
      "pad_fill_mode" : 0,
      "pad_b" : 0,
      "pad_l" : 0,
      "top" : "RE_block_5_project_BN_output",
      "blob_weights" : 187,
      "K" : 48,
      "blob_biases" : 185,
      "name" : "RE_block_5_project",
      "has_batch_norm" : 0,
      "type" : "convolution",
      "n_groups" : 1,
      "pad_t" : 0,
      "has_biases" : 1,
      "C" : 8,
      "bottom" : "RE_block_5_depthwise_relu_output",
      "weights" : {

      },
      "pad_mode" : 1,
      "Nx" : 1,
      "pad_value" : 0,
      "Ny" : 1,
      "n_parallel" : 1
    },
    {
      "pad_r" : 0,
      "fused_relu" : 0,
      "fused_tanh" : 0,
      "pad_fill_mode" : 0,
      "pad_b" : 0,
      "pad_l" : 0,
      "top" : "LE_block_5_project_BN_output",
      "blob_weights" : 191,
      "K" : 48,
      "blob_biases" : 189,
      "name" : "LE_block_5_project",
      "has_batch_norm" : 0,
      "type" : "convolution",
      "n_groups" : 1,
      "pad_t" : 0,
      "has_biases" : 1,
      "C" : 8,
      "bottom" : "LE_block_5_depthwise_relu_output",
      "weights" : {

      },
      "pad_mode" : 1,
      "Nx" : 1,
      "pad_value" : 0,
      "Ny" : 1,
      "n_parallel" : 1
    },
    {
      "alpha" : 1,
      "bottom" : "Cont_block_4_project_BN_output,Cont_block_5_project_BN_output",
      "operation" : 0,
      "weights" : {

      },
      "fused_relu" : 0,
      "top" : "Cont_block_5_add_output",
      "type" : "elementwise",
      "name" : "Cont_block_5_add",
      "beta" : 0
    },
    {
      "alpha" : 1,
      "bottom" : "Lips_block_4_project_BN_output,Lips_block_5_project_BN_output",
      "operation" : 0,
      "weights" : {

      },
      "fused_relu" : 0,
      "top" : "Lips_block_5_add_output",
      "type" : "elementwise",
      "name" : "Lips_block_5_add",
      "beta" : 0
    },
    {
      "alpha" : 1,
      "bottom" : "RE_block_4_project_BN_output,RE_block_5_project_BN_output",
      "operation" : 0,
      "weights" : {

      },
      "fused_relu" : 0,
      "top" : "RE_block_5_add_output",
      "type" : "elementwise",
      "name" : "RE_block_5_add",
      "beta" : 0
    },
    {
      "alpha" : 1,
      "bottom" : "LE_block_4_project_BN_output,LE_block_5_project_BN_output",
      "operation" : 0,
      "weights" : {

      },
      "fused_relu" : 0,
      "top" : "LE_block_5_add_output",
      "type" : "elementwise",
      "name" : "LE_block_5_add",
      "beta" : 0
    },
    {
      "pad_r" : 0,
      "fused_relu" : 0,
      "fused_tanh" : 0,
      "pad_fill_mode" : 0,
      "pad_b" : 0,
      "pad_l" : 0,
      "top" : "Cont_block_6_expand_BN_output",
      "blob_weights" : 195,
      "K" : 8,
      "blob_biases" : 193,
      "name" : "Cont_block_6_expand",
      "has_batch_norm" : 0,
      "type" : "convolution",
      "n_groups" : 1,
      "pad_t" : 0,
      "has_biases" : 1,
      "C" : 48,
      "bottom" : "Cont_block_5_add_output",
      "weights" : {

      },
      "pad_mode" : 1,
      "Nx" : 1,
      "pad_value" : 0,
      "Ny" : 1,
      "n_parallel" : 1
    },
    {
      "pad_r" : 0,
      "fused_relu" : 0,
      "fused_tanh" : 0,
      "pad_fill_mode" : 0,
      "pad_b" : 0,
      "pad_l" : 0,
      "top" : "Lips_block_6_expand_BN_output",
      "blob_weights" : 199,
      "K" : 8,
      "blob_biases" : 197,
      "name" : "Lips_block_6_expand",
      "has_batch_norm" : 0,
      "type" : "convolution",
      "n_groups" : 1,
      "pad_t" : 0,
      "has_biases" : 1,
      "C" : 48,
      "bottom" : "Lips_block_5_add_output",
      "weights" : {

      },
      "pad_mode" : 1,
      "Nx" : 1,
      "pad_value" : 0,
      "Ny" : 1,
      "n_parallel" : 1
    },
    {
      "pad_r" : 0,
      "fused_relu" : 0,
      "fused_tanh" : 0,
      "pad_fill_mode" : 0,
      "pad_b" : 0,
      "pad_l" : 0,
      "top" : "RE_block_6_expand_BN_output",
      "blob_weights" : 203,
      "K" : 8,
      "blob_biases" : 201,
      "name" : "RE_block_6_expand",
      "has_batch_norm" : 0,
      "type" : "convolution",
      "n_groups" : 1,
      "pad_t" : 0,
      "has_biases" : 1,
      "C" : 48,
      "bottom" : "RE_block_5_add_output",
      "weights" : {

      },
      "pad_mode" : 1,
      "Nx" : 1,
      "pad_value" : 0,
      "Ny" : 1,
      "n_parallel" : 1
    },
    {
      "pad_r" : 0,
      "fused_relu" : 0,
      "fused_tanh" : 0,
      "pad_fill_mode" : 0,
      "pad_b" : 0,
      "pad_l" : 0,
      "top" : "LE_block_6_expand_BN_output",
      "blob_weights" : 207,
      "K" : 8,
      "blob_biases" : 205,
      "name" : "LE_block_6_expand",
      "has_batch_norm" : 0,
      "type" : "convolution",
      "n_groups" : 1,
      "pad_t" : 0,
      "has_biases" : 1,
      "C" : 48,
      "bottom" : "LE_block_5_add_output",
      "weights" : {

      },
      "pad_mode" : 1,
      "Nx" : 1,
      "pad_value" : 0,
      "Ny" : 1,
      "n_parallel" : 1
    },
    {
      "mode" : 4,
      "weights" : {
        "params_prelu" : 209
      },
      "top" : "Cont_block_6_expand_relu_output",
      "type" : "activation",
      "name" : "Cont_block_6_expand_relu",
      "bottom" : "Cont_block_6_expand_BN_output"
    },
    {
      "mode" : 4,
      "weights" : {
        "params_prelu" : 211
      },
      "top" : "Lips_block_6_expand_relu_output",
      "type" : "activation",
      "name" : "Lips_block_6_expand_relu",
      "bottom" : "Lips_block_6_expand_BN_output"
    },
    {
      "mode" : 4,
      "weights" : {
        "params_prelu" : 213
      },
      "top" : "RE_block_6_expand_relu_output",
      "type" : "activation",
      "name" : "RE_block_6_expand_relu",
      "bottom" : "RE_block_6_expand_BN_output"
    },
    {
      "mode" : 4,
      "weights" : {
        "params_prelu" : 215
      },
      "top" : "LE_block_6_expand_relu_output",
      "type" : "activation",
      "name" : "LE_block_6_expand_relu",
      "bottom" : "LE_block_6_expand_BN_output"
    },
    {
      "pad_r" : 1,
      "fused_relu" : 0,
      "fused_tanh" : 0,
      "pad_fill_mode" : 0,
      "pad_b" : 1,
      "pad_l" : 0,
      "top" : "Cont_block_6_depthwise_BN_output",
      "blob_weights" : 219,
      "K" : 48,
      "blob_biases" : 217,
      "stride_x" : 2,
      "name" : "Cont_block_6_depthwise",
      "has_batch_norm" : 0,
      "type" : "convolution",
      "n_groups" : 48,
      "pad_t" : 0,
      "stride_y" : 2,
      "has_biases" : 1,
      "C" : 48,
      "bottom" : "Cont_block_6_expand_relu_output",
      "weights" : {

      },
      "Nx" : 3,
      "pad_mode" : 0,
      "pad_value" : 0,
      "Ny" : 3,
      "n_parallel" : 1
    },
    {
      "pad_r" : 1,
      "fused_relu" : 0,
      "fused_tanh" : 0,
      "pad_fill_mode" : 0,
      "pad_b" : 1,
      "pad_l" : 0,
      "top" : "Lips_block_6_depthwise_BN_output",
      "blob_weights" : 223,
      "K" : 48,
      "blob_biases" : 221,
      "stride_x" : 2,
      "name" : "Lips_block_6_depthwise",
      "has_batch_norm" : 0,
      "type" : "convolution",
      "n_groups" : 48,
      "pad_t" : 0,
      "stride_y" : 2,
      "has_biases" : 1,
      "C" : 48,
      "bottom" : "Lips_block_6_expand_relu_output",
      "weights" : {

      },
      "Nx" : 3,
      "pad_mode" : 0,
      "pad_value" : 0,
      "Ny" : 3,
      "n_parallel" : 1
    },
    {
      "pad_r" : 1,
      "fused_relu" : 0,
      "fused_tanh" : 0,
      "pad_fill_mode" : 0,
      "pad_b" : 1,
      "pad_l" : 0,
      "top" : "RE_block_6_depthwise_BN_output",
      "blob_weights" : 227,
      "K" : 48,
      "blob_biases" : 225,
      "stride_x" : 2,
      "name" : "RE_block_6_depthwise",
      "has_batch_norm" : 0,
      "type" : "convolution",
      "n_groups" : 48,
      "pad_t" : 0,
      "stride_y" : 2,
      "has_biases" : 1,
      "C" : 48,
      "bottom" : "RE_block_6_expand_relu_output",
      "weights" : {

      },
      "Nx" : 3,
      "pad_mode" : 0,
      "pad_value" : 0,
      "Ny" : 3,
      "n_parallel" : 1
    },
    {
      "pad_r" : 1,
      "fused_relu" : 0,
      "fused_tanh" : 0,
      "pad_fill_mode" : 0,
      "pad_b" : 1,
      "pad_l" : 0,
      "top" : "LE_block_6_depthwise_BN_output",
      "blob_weights" : 231,
      "K" : 48,
      "blob_biases" : 229,
      "stride_x" : 2,
      "name" : "LE_block_6_depthwise",
      "has_batch_norm" : 0,
      "type" : "convolution",
      "n_groups" : 48,
      "pad_t" : 0,
      "stride_y" : 2,
      "has_biases" : 1,
      "C" : 48,
      "bottom" : "LE_block_6_expand_relu_output",
      "weights" : {

      },
      "Nx" : 3,
      "pad_mode" : 0,
      "pad_value" : 0,
      "Ny" : 3,
      "n_parallel" : 1
    },
    {
      "mode" : 4,
      "weights" : {
        "params_prelu" : 233
      },
      "top" : "Cont_block_6_depthwise_relu_output",
      "type" : "activation",
      "name" : "Cont_block_6_depthwise_relu",
      "bottom" : "Cont_block_6_depthwise_BN_output"
    },
    {
      "mode" : 4,
      "weights" : {
        "params_prelu" : 235
      },
      "top" : "Lips_block_6_depthwise_relu_output",
      "type" : "activation",
      "name" : "Lips_block_6_depthwise_relu",
      "bottom" : "Lips_block_6_depthwise_BN_output"
    },
    {
      "mode" : 4,
      "weights" : {
        "params_prelu" : 237
      },
      "top" : "RE_block_6_depthwise_relu_output",
      "type" : "activation",
      "name" : "RE_block_6_depthwise_relu",
      "bottom" : "RE_block_6_depthwise_BN_output"
    },
    {
      "mode" : 4,
      "weights" : {
        "params_prelu" : 239
      },
      "top" : "LE_block_6_depthwise_relu_output",
      "type" : "activation",
      "name" : "LE_block_6_depthwise_relu",
      "bottom" : "LE_block_6_depthwise_BN_output"
    },
    {
      "pad_r" : 0,
      "fused_relu" : 0,
      "fused_tanh" : 0,
      "pad_fill_mode" : 0,
      "pad_b" : 0,
      "pad_l" : 0,
      "top" : "Cont_block_6_project_BN_output",
      "blob_weights" : 243,
      "K" : 48,
      "blob_biases" : 241,
      "name" : "Cont_block_6_project",
      "has_batch_norm" : 0,
      "type" : "convolution",
      "n_groups" : 1,
      "pad_t" : 0,
      "has_biases" : 1,
      "C" : 8,
      "bottom" : "Cont_block_6_depthwise_relu_output",
      "weights" : {

      },
      "pad_mode" : 1,
      "Nx" : 1,
      "pad_value" : 0,
      "Ny" : 1,
      "n_parallel" : 1
    },
    {
      "pad_r" : 0,
      "fused_relu" : 0,
      "fused_tanh" : 0,
      "pad_fill_mode" : 0,
      "pad_b" : 0,
      "pad_l" : 0,
      "top" : "Lips_block_6_project_BN_output",
      "blob_weights" : 247,
      "K" : 48,
      "blob_biases" : 245,
      "name" : "Lips_block_6_project",
      "has_batch_norm" : 0,
      "type" : "convolution",
      "n_groups" : 1,
      "pad_t" : 0,
      "has_biases" : 1,
      "C" : 8,
      "bottom" : "Lips_block_6_depthwise_relu_output",
      "weights" : {

      },
      "pad_mode" : 1,
      "Nx" : 1,
      "pad_value" : 0,
      "Ny" : 1,
      "n_parallel" : 1
    },
    {
      "pad_r" : 0,
      "fused_relu" : 0,
      "fused_tanh" : 0,
      "pad_fill_mode" : 0,
      "pad_b" : 0,
      "pad_l" : 0,
      "top" : "RE_block_6_project_BN_output",
      "blob_weights" : 251,
      "K" : 48,
      "blob_biases" : 249,
      "name" : "RE_block_6_project",
      "has_batch_norm" : 0,
      "type" : "convolution",
      "n_groups" : 1,
      "pad_t" : 0,
      "has_biases" : 1,
      "C" : 8,
      "bottom" : "RE_block_6_depthwise_relu_output",
      "weights" : {

      },
      "pad_mode" : 1,
      "Nx" : 1,
      "pad_value" : 0,
      "Ny" : 1,
      "n_parallel" : 1
    },
    {
      "pad_r" : 0,
      "fused_relu" : 0,
      "fused_tanh" : 0,
      "pad_fill_mode" : 0,
      "pad_b" : 0,
      "pad_l" : 0,
      "top" : "LE_block_6_project_BN_output",
      "blob_weights" : 255,
      "K" : 48,
      "blob_biases" : 253,
      "name" : "LE_block_6_project",
      "has_batch_norm" : 0,
      "type" : "convolution",
      "n_groups" : 1,
      "pad_t" : 0,
      "has_biases" : 1,
      "C" : 8,
      "bottom" : "LE_block_6_depthwise_relu_output",
      "weights" : {

      },
      "pad_mode" : 1,
      "Nx" : 1,
      "pad_value" : 0,
      "Ny" : 1,
      "n_parallel" : 1
    },
    {
      "pad_r" : 0,
      "fused_relu" : 0,
      "fused_tanh" : 0,
      "pad_fill_mode" : 0,
      "pad_b" : 0,
      "pad_l" : 0,
      "top" : "Cont_block_7_expand_BN_output",
      "blob_weights" : 259,
      "K" : 8,
      "blob_biases" : 257,
      "name" : "Cont_block_7_expand",
      "has_batch_norm" : 0,
      "type" : "convolution",
      "n_groups" : 1,
      "pad_t" : 0,
      "has_biases" : 1,
      "C" : 48,
      "bottom" : "Cont_block_6_project_BN_output",
      "weights" : {

      },
      "pad_mode" : 1,
      "Nx" : 1,
      "pad_value" : 0,
      "Ny" : 1,
      "n_parallel" : 1
    },
    {
      "pad_r" : 0,
      "fused_relu" : 0,
      "fused_tanh" : 0,
      "pad_fill_mode" : 0,
      "pad_b" : 0,
      "pad_l" : 0,
      "top" : "Lips_block_7_expand_BN_output",
      "blob_weights" : 263,
      "K" : 8,
      "blob_biases" : 261,
      "name" : "Lips_block_7_expand",
      "has_batch_norm" : 0,
      "type" : "convolution",
      "n_groups" : 1,
      "pad_t" : 0,
      "has_biases" : 1,
      "C" : 48,
      "bottom" : "Lips_block_6_project_BN_output",
      "weights" : {

      },
      "pad_mode" : 1,
      "Nx" : 1,
      "pad_value" : 0,
      "Ny" : 1,
      "n_parallel" : 1
    },
    {
      "pad_r" : 0,
      "fused_relu" : 0,
      "fused_tanh" : 0,
      "pad_fill_mode" : 0,
      "pad_b" : 0,
      "pad_l" : 0,
      "top" : "RE_block_7_expand_BN_output",
      "blob_weights" : 267,
      "K" : 8,
      "blob_biases" : 265,
      "name" : "RE_block_7_expand",
      "has_batch_norm" : 0,
      "type" : "convolution",
      "n_groups" : 1,
      "pad_t" : 0,
      "has_biases" : 1,
      "C" : 48,
      "bottom" : "RE_block_6_project_BN_output",
      "weights" : {

      },
      "pad_mode" : 1,
      "Nx" : 1,
      "pad_value" : 0,
      "Ny" : 1,
      "n_parallel" : 1
    },
    {
      "pad_r" : 0,
      "fused_relu" : 0,
      "fused_tanh" : 0,
      "pad_fill_mode" : 0,
      "pad_b" : 0,
      "pad_l" : 0,
      "top" : "LE_block_7_expand_BN_output",
      "blob_weights" : 271,
      "K" : 8,
      "blob_biases" : 269,
      "name" : "LE_block_7_expand",
      "has_batch_norm" : 0,
      "type" : "convolution",
      "n_groups" : 1,
      "pad_t" : 0,
      "has_biases" : 1,
      "C" : 48,
      "bottom" : "LE_block_6_project_BN_output",
      "weights" : {

      },
      "pad_mode" : 1,
      "Nx" : 1,
      "pad_value" : 0,
      "Ny" : 1,
      "n_parallel" : 1
    },
    {
      "mode" : 4,
      "weights" : {
        "params_prelu" : 273
      },
      "top" : "Cont_block_7_expand_relu_output",
      "type" : "activation",
      "name" : "Cont_block_7_expand_relu",
      "bottom" : "Cont_block_7_expand_BN_output"
    },
    {
      "mode" : 4,
      "weights" : {
        "params_prelu" : 275
      },
      "top" : "Lips_block_7_expand_relu_output",
      "type" : "activation",
      "name" : "Lips_block_7_expand_relu",
      "bottom" : "Lips_block_7_expand_BN_output"
    },
    {
      "mode" : 4,
      "weights" : {
        "params_prelu" : 277
      },
      "top" : "RE_block_7_expand_relu_output",
      "type" : "activation",
      "name" : "RE_block_7_expand_relu",
      "bottom" : "RE_block_7_expand_BN_output"
    },
    {
      "mode" : 4,
      "weights" : {
        "params_prelu" : 279
      },
      "top" : "LE_block_7_expand_relu_output",
      "type" : "activation",
      "name" : "LE_block_7_expand_relu",
      "bottom" : "LE_block_7_expand_BN_output"
    },
    {
      "pad_r" : 0,
      "fused_relu" : 0,
      "fused_tanh" : 0,
      "pad_fill_mode" : 0,
      "pad_b" : 0,
      "pad_l" : 0,
      "top" : "Cont_block_7_depthwise_BN_output",
      "blob_weights" : 283,
      "K" : 48,
      "blob_biases" : 281,
      "name" : "Cont_block_7_depthwise",
      "has_batch_norm" : 0,
      "type" : "convolution",
      "n_groups" : 48,
      "pad_t" : 0,
      "has_biases" : 1,
      "C" : 48,
      "bottom" : "Cont_block_7_expand_relu_output",
      "weights" : {

      },
      "pad_mode" : 1,
      "Nx" : 3,
      "pad_value" : 0,
      "Ny" : 3,
      "n_parallel" : 1
    },
    {
      "pad_r" : 0,
      "fused_relu" : 0,
      "fused_tanh" : 0,
      "pad_fill_mode" : 0,
      "pad_b" : 0,
      "pad_l" : 0,
      "top" : "Lips_block_7_depthwise_BN_output",
      "blob_weights" : 287,
      "K" : 48,
      "blob_biases" : 285,
      "name" : "Lips_block_7_depthwise",
      "has_batch_norm" : 0,
      "type" : "convolution",
      "n_groups" : 48,
      "pad_t" : 0,
      "has_biases" : 1,
      "C" : 48,
      "bottom" : "Lips_block_7_expand_relu_output",
      "weights" : {

      },
      "pad_mode" : 1,
      "Nx" : 3,
      "pad_value" : 0,
      "Ny" : 3,
      "n_parallel" : 1
    },
    {
      "pad_r" : 0,
      "fused_relu" : 0,
      "fused_tanh" : 0,
      "pad_fill_mode" : 0,
      "pad_b" : 0,
      "pad_l" : 0,
      "top" : "RE_block_7_depthwise_BN_output",
      "blob_weights" : 291,
      "K" : 48,
      "blob_biases" : 289,
      "name" : "RE_block_7_depthwise",
      "has_batch_norm" : 0,
      "type" : "convolution",
      "n_groups" : 48,
      "pad_t" : 0,
      "has_biases" : 1,
      "C" : 48,
      "bottom" : "RE_block_7_expand_relu_output",
      "weights" : {

      },
      "pad_mode" : 1,
      "Nx" : 3,
      "pad_value" : 0,
      "Ny" : 3,
      "n_parallel" : 1
    },
    {
      "pad_r" : 0,
      "fused_relu" : 0,
      "fused_tanh" : 0,
      "pad_fill_mode" : 0,
      "pad_b" : 0,
      "pad_l" : 0,
      "top" : "LE_block_7_depthwise_BN_output",
      "blob_weights" : 295,
      "K" : 48,
      "blob_biases" : 293,
      "name" : "LE_block_7_depthwise",
      "has_batch_norm" : 0,
      "type" : "convolution",
      "n_groups" : 48,
      "pad_t" : 0,
      "has_biases" : 1,
      "C" : 48,
      "bottom" : "LE_block_7_expand_relu_output",
      "weights" : {

      },
      "pad_mode" : 1,
      "Nx" : 3,
      "pad_value" : 0,
      "Ny" : 3,
      "n_parallel" : 1
    },
    {
      "mode" : 4,
      "weights" : {
        "params_prelu" : 297
      },
      "top" : "Cont_block_7_depthwise_relu_output",
      "type" : "activation",
      "name" : "Cont_block_7_depthwise_relu",
      "bottom" : "Cont_block_7_depthwise_BN_output"
    },
    {
      "mode" : 4,
      "weights" : {
        "params_prelu" : 299
      },
      "top" : "Lips_block_7_depthwise_relu_output",
      "type" : "activation",
      "name" : "Lips_block_7_depthwise_relu",
      "bottom" : "Lips_block_7_depthwise_BN_output"
    },
    {
      "mode" : 4,
      "weights" : {
        "params_prelu" : 301
      },
      "top" : "RE_block_7_depthwise_relu_output",
      "type" : "activation",
      "name" : "RE_block_7_depthwise_relu",
      "bottom" : "RE_block_7_depthwise_BN_output"
    },
    {
      "mode" : 4,
      "weights" : {
        "params_prelu" : 303
      },
      "top" : "LE_block_7_depthwise_relu_output",
      "type" : "activation",
      "name" : "LE_block_7_depthwise_relu",
      "bottom" : "LE_block_7_depthwise_BN_output"
    },
    {
      "pad_r" : 0,
      "fused_relu" : 0,
      "fused_tanh" : 0,
      "pad_fill_mode" : 0,
      "pad_b" : 0,
      "pad_l" : 0,
      "top" : "Cont_block_7_project_BN_output",
      "blob_weights" : 307,
      "K" : 48,
      "blob_biases" : 305,
      "name" : "Cont_block_7_project",
      "has_batch_norm" : 0,
      "type" : "convolution",
      "n_groups" : 1,
      "pad_t" : 0,
      "has_biases" : 1,
      "C" : 8,
      "bottom" : "Cont_block_7_depthwise_relu_output",
      "weights" : {

      },
      "pad_mode" : 1,
      "Nx" : 1,
      "pad_value" : 0,
      "Ny" : 1,
      "n_parallel" : 1
    },
    {
      "pad_r" : 0,
      "fused_relu" : 0,
      "fused_tanh" : 0,
      "pad_fill_mode" : 0,
      "pad_b" : 0,
      "pad_l" : 0,
      "top" : "Lips_block_7_project_BN_output",
      "blob_weights" : 311,
      "K" : 48,
      "blob_biases" : 309,
      "name" : "Lips_block_7_project",
      "has_batch_norm" : 0,
      "type" : "convolution",
      "n_groups" : 1,
      "pad_t" : 0,
      "has_biases" : 1,
      "C" : 8,
      "bottom" : "Lips_block_7_depthwise_relu_output",
      "weights" : {

      },
      "pad_mode" : 1,
      "Nx" : 1,
      "pad_value" : 0,
      "Ny" : 1,
      "n_parallel" : 1
    },
    {
      "pad_r" : 0,
      "fused_relu" : 0,
      "fused_tanh" : 0,
      "pad_fill_mode" : 0,
      "pad_b" : 0,
      "pad_l" : 0,
      "top" : "RE_block_7_project_BN_output",
      "blob_weights" : 315,
      "K" : 48,
      "blob_biases" : 313,
      "name" : "RE_block_7_project",
      "has_batch_norm" : 0,
      "type" : "convolution",
      "n_groups" : 1,
      "pad_t" : 0,
      "has_biases" : 1,
      "C" : 8,
      "bottom" : "RE_block_7_depthwise_relu_output",
      "weights" : {

      },
      "pad_mode" : 1,
      "Nx" : 1,
      "pad_value" : 0,
      "Ny" : 1,
      "n_parallel" : 1
    },
    {
      "pad_r" : 0,
      "fused_relu" : 0,
      "fused_tanh" : 0,
      "pad_fill_mode" : 0,
      "pad_b" : 0,
      "pad_l" : 0,
      "top" : "LE_block_7_project_BN_output",
      "blob_weights" : 319,
      "K" : 48,
      "blob_biases" : 317,
      "name" : "LE_block_7_project",
      "has_batch_norm" : 0,
      "type" : "convolution",
      "n_groups" : 1,
      "pad_t" : 0,
      "has_biases" : 1,
      "C" : 8,
      "bottom" : "LE_block_7_depthwise_relu_output",
      "weights" : {

      },
      "pad_mode" : 1,
      "Nx" : 1,
      "pad_value" : 0,
      "Ny" : 1,
      "n_parallel" : 1
    },
    {
      "alpha" : 1,
      "bottom" : "Cont_block_6_project_BN_output,Cont_block_7_project_BN_output",
      "operation" : 0,
      "weights" : {

      },
      "fused_relu" : 0,
      "top" : "Cont_block_7_add_output",
      "type" : "elementwise",
      "name" : "Cont_block_7_add",
      "beta" : 0
    },
    {
      "alpha" : 1,
      "bottom" : "Lips_block_6_project_BN_output,Lips_block_7_project_BN_output",
      "operation" : 0,
      "weights" : {

      },
      "fused_relu" : 0,
      "top" : "Lips_block_7_add_output",
      "type" : "elementwise",
      "name" : "Lips_block_7_add",
      "beta" : 0
    },
    {
      "alpha" : 1,
      "bottom" : "RE_block_6_project_BN_output,RE_block_7_project_BN_output",
      "operation" : 0,
      "weights" : {

      },
      "fused_relu" : 0,
      "top" : "RE_block_7_add_output",
      "type" : "elementwise",
      "name" : "RE_block_7_add",
      "beta" : 0
    },
    {
      "alpha" : 1,
      "bottom" : "LE_block_6_project_BN_output,LE_block_7_project_BN_output",
      "operation" : 0,
      "weights" : {

      },
      "fused_relu" : 0,
      "top" : "LE_block_7_add_output",
      "type" : "elementwise",
      "name" : "LE_block_7_add",
      "beta" : 0
    },
    {
      "pad_r" : 0,
      "fused_relu" : 0,
      "fused_tanh" : 0,
      "pad_fill_mode" : 0,
      "pad_b" : 0,
      "pad_l" : 0,
      "top" : "Cont_block_8_expand_BN_output",
      "blob_weights" : 323,
      "K" : 8,
      "blob_biases" : 321,
      "name" : "Cont_block_8_expand",
      "has_batch_norm" : 0,
      "type" : "convolution",
      "n_groups" : 1,
      "pad_t" : 0,
      "has_biases" : 1,
      "C" : 48,
      "bottom" : "Cont_block_7_add_output",
      "weights" : {

      },
      "pad_mode" : 1,
      "Nx" : 1,
      "pad_value" : 0,
      "Ny" : 1,
      "n_parallel" : 1
    },
    {
      "pad_r" : 0,
      "fused_relu" : 0,
      "fused_tanh" : 0,
      "pad_fill_mode" : 0,
      "pad_b" : 0,
      "pad_l" : 0,
      "top" : "Lips_block_8_expand_BN_output",
      "blob_weights" : 327,
      "K" : 8,
      "blob_biases" : 325,
      "name" : "Lips_block_8_expand",
      "has_batch_norm" : 0,
      "type" : "convolution",
      "n_groups" : 1,
      "pad_t" : 0,
      "has_biases" : 1,
      "C" : 48,
      "bottom" : "Lips_block_7_add_output",
      "weights" : {

      },
      "pad_mode" : 1,
      "Nx" : 1,
      "pad_value" : 0,
      "Ny" : 1,
      "n_parallel" : 1
    },
    {
      "pad_r" : 0,
      "fused_relu" : 0,
      "fused_tanh" : 0,
      "pad_fill_mode" : 0,
      "pad_b" : 0,
      "pad_l" : 0,
      "top" : "RE_block_8_expand_BN_output",
      "blob_weights" : 331,
      "K" : 8,
      "blob_biases" : 329,
      "name" : "RE_block_8_expand",
      "has_batch_norm" : 0,
      "type" : "convolution",
      "n_groups" : 1,
      "pad_t" : 0,
      "has_biases" : 1,
      "C" : 48,
      "bottom" : "RE_block_7_add_output",
      "weights" : {

      },
      "pad_mode" : 1,
      "Nx" : 1,
      "pad_value" : 0,
      "Ny" : 1,
      "n_parallel" : 1
    },
    {
      "pad_r" : 0,
      "fused_relu" : 0,
      "fused_tanh" : 0,
      "pad_fill_mode" : 0,
      "pad_b" : 0,
      "pad_l" : 0,
      "top" : "LE_block_8_expand_BN_output",
      "blob_weights" : 335,
      "K" : 8,
      "blob_biases" : 333,
      "name" : "LE_block_8_expand",
      "has_batch_norm" : 0,
      "type" : "convolution",
      "n_groups" : 1,
      "pad_t" : 0,
      "has_biases" : 1,
      "C" : 48,
      "bottom" : "LE_block_7_add_output",
      "weights" : {

      },
      "pad_mode" : 1,
      "Nx" : 1,
      "pad_value" : 0,
      "Ny" : 1,
      "n_parallel" : 1
    },
    {
      "mode" : 4,
      "weights" : {
        "params_prelu" : 337
      },
      "top" : "Cont_block_8_expand_relu_output",
      "type" : "activation",
      "name" : "Cont_block_8_expand_relu",
      "bottom" : "Cont_block_8_expand_BN_output"
    },
    {
      "mode" : 4,
      "weights" : {
        "params_prelu" : 339
      },
      "top" : "Lips_block_8_expand_relu_output",
      "type" : "activation",
      "name" : "Lips_block_8_expand_relu",
      "bottom" : "Lips_block_8_expand_BN_output"
    },
    {
      "mode" : 4,
      "weights" : {
        "params_prelu" : 341
      },
      "top" : "RE_block_8_expand_relu_output",
      "type" : "activation",
      "name" : "RE_block_8_expand_relu",
      "bottom" : "RE_block_8_expand_BN_output"
    },
    {
      "mode" : 4,
      "weights" : {
        "params_prelu" : 343
      },
      "top" : "LE_block_8_expand_relu_output",
      "type" : "activation",
      "name" : "LE_block_8_expand_relu",
      "bottom" : "LE_block_8_expand_BN_output"
    },
    {
      "pad_r" : 0,
      "fused_relu" : 0,
      "fused_tanh" : 0,
      "pad_fill_mode" : 0,
      "pad_b" : 0,
      "pad_l" : 0,
      "top" : "Cont_block_8_depthwise_BN_output",
      "blob_weights" : 347,
      "K" : 48,
      "blob_biases" : 345,
      "name" : "Cont_block_8_depthwise",
      "has_batch_norm" : 0,
      "type" : "convolution",
      "n_groups" : 48,
      "pad_t" : 0,
      "has_biases" : 1,
      "C" : 48,
      "bottom" : "Cont_block_8_expand_relu_output",
      "weights" : {

      },
      "pad_mode" : 1,
      "Nx" : 3,
      "pad_value" : 0,
      "Ny" : 3,
      "n_parallel" : 1
    },
    {
      "pad_r" : 0,
      "fused_relu" : 0,
      "fused_tanh" : 0,
      "pad_fill_mode" : 0,
      "pad_b" : 0,
      "pad_l" : 0,
      "top" : "Lips_block_8_depthwise_BN_output",
      "blob_weights" : 351,
      "K" : 48,
      "blob_biases" : 349,
      "name" : "Lips_block_8_depthwise",
      "has_batch_norm" : 0,
      "type" : "convolution",
      "n_groups" : 48,
      "pad_t" : 0,
      "has_biases" : 1,
      "C" : 48,
      "bottom" : "Lips_block_8_expand_relu_output",
      "weights" : {

      },
      "pad_mode" : 1,
      "Nx" : 3,
      "pad_value" : 0,
      "Ny" : 3,
      "n_parallel" : 1
    },
    {
      "pad_r" : 0,
      "fused_relu" : 0,
      "fused_tanh" : 0,
      "pad_fill_mode" : 0,
      "pad_b" : 0,
      "pad_l" : 0,
      "top" : "RE_block_8_depthwise_BN_output",
      "blob_weights" : 355,
      "K" : 48,
      "blob_biases" : 353,
      "name" : "RE_block_8_depthwise",
      "has_batch_norm" : 0,
      "type" : "convolution",
      "n_groups" : 48,
      "pad_t" : 0,
      "has_biases" : 1,
      "C" : 48,
      "bottom" : "RE_block_8_expand_relu_output",
      "weights" : {

      },
      "pad_mode" : 1,
      "Nx" : 3,
      "pad_value" : 0,
      "Ny" : 3,
      "n_parallel" : 1
    },
    {
      "pad_r" : 0,
      "fused_relu" : 0,
      "fused_tanh" : 0,
      "pad_fill_mode" : 0,
      "pad_b" : 0,
      "pad_l" : 0,
      "top" : "LE_block_8_depthwise_BN_output",
      "blob_weights" : 359,
      "K" : 48,
      "blob_biases" : 357,
      "name" : "LE_block_8_depthwise",
      "has_batch_norm" : 0,
      "type" : "convolution",
      "n_groups" : 48,
      "pad_t" : 0,
      "has_biases" : 1,
      "C" : 48,
      "bottom" : "LE_block_8_expand_relu_output",
      "weights" : {

      },
      "pad_mode" : 1,
      "Nx" : 3,
      "pad_value" : 0,
      "Ny" : 3,
      "n_parallel" : 1
    },
    {
      "mode" : 4,
      "weights" : {
        "params_prelu" : 361
      },
      "top" : "Cont_block_8_depthwise_relu_output",
      "type" : "activation",
      "name" : "Cont_block_8_depthwise_relu",
      "bottom" : "Cont_block_8_depthwise_BN_output"
    },
    {
      "mode" : 4,
      "weights" : {
        "params_prelu" : 363
      },
      "top" : "Lips_block_8_depthwise_relu_output",
      "type" : "activation",
      "name" : "Lips_block_8_depthwise_relu",
      "bottom" : "Lips_block_8_depthwise_BN_output"
    },
    {
      "mode" : 4,
      "weights" : {
        "params_prelu" : 365
      },
      "top" : "RE_block_8_depthwise_relu_output",
      "type" : "activation",
      "name" : "RE_block_8_depthwise_relu",
      "bottom" : "RE_block_8_depthwise_BN_output"
    },
    {
      "mode" : 4,
      "weights" : {
        "params_prelu" : 367
      },
      "top" : "LE_block_8_depthwise_relu_output",
      "type" : "activation",
      "name" : "LE_block_8_depthwise_relu",
      "bottom" : "LE_block_8_depthwise_BN_output"
    },
    {
      "pad_r" : 0,
      "fused_relu" : 0,
      "fused_tanh" : 0,
      "pad_fill_mode" : 0,
      "pad_b" : 0,
      "pad_l" : 0,
      "top" : "Cont_block_8_project_BN_output",
      "blob_weights" : 371,
      "K" : 48,
      "blob_biases" : 369,
      "name" : "Cont_block_8_project",
      "has_batch_norm" : 0,
      "type" : "convolution",
      "n_groups" : 1,
      "pad_t" : 0,
      "has_biases" : 1,
      "C" : 8,
      "bottom" : "Cont_block_8_depthwise_relu_output",
      "weights" : {

      },
      "pad_mode" : 1,
      "Nx" : 1,
      "pad_value" : 0,
      "Ny" : 1,
      "n_parallel" : 1
    },
    {
      "pad_r" : 0,
      "fused_relu" : 0,
      "fused_tanh" : 0,
      "pad_fill_mode" : 0,
      "pad_b" : 0,
      "pad_l" : 0,
      "top" : "Lips_block_8_project_BN_output",
      "blob_weights" : 375,
      "K" : 48,
      "blob_biases" : 373,
      "name" : "Lips_block_8_project",
      "has_batch_norm" : 0,
      "type" : "convolution",
      "n_groups" : 1,
      "pad_t" : 0,
      "has_biases" : 1,
      "C" : 8,
      "bottom" : "Lips_block_8_depthwise_relu_output",
      "weights" : {

      },
      "pad_mode" : 1,
      "Nx" : 1,
      "pad_value" : 0,
      "Ny" : 1,
      "n_parallel" : 1
    },
    {
      "pad_r" : 0,
      "fused_relu" : 0,
      "fused_tanh" : 0,
      "pad_fill_mode" : 0,
      "pad_b" : 0,
      "pad_l" : 0,
      "top" : "RE_block_8_project_BN_output",
      "blob_weights" : 379,
      "K" : 48,
      "blob_biases" : 377,
      "name" : "RE_block_8_project",
      "has_batch_norm" : 0,
      "type" : "convolution",
      "n_groups" : 1,
      "pad_t" : 0,
      "has_biases" : 1,
      "C" : 8,
      "bottom" : "RE_block_8_depthwise_relu_output",
      "weights" : {

      },
      "pad_mode" : 1,
      "Nx" : 1,
      "pad_value" : 0,
      "Ny" : 1,
      "n_parallel" : 1
    },
    {
      "pad_r" : 0,
      "fused_relu" : 0,
      "fused_tanh" : 0,
      "pad_fill_mode" : 0,
      "pad_b" : 0,
      "pad_l" : 0,
      "top" : "LE_block_8_project_BN_output",
      "blob_weights" : 383,
      "K" : 48,
      "blob_biases" : 381,
      "name" : "LE_block_8_project",
      "has_batch_norm" : 0,
      "type" : "convolution",
      "n_groups" : 1,
      "pad_t" : 0,
      "has_biases" : 1,
      "C" : 8,
      "bottom" : "LE_block_8_depthwise_relu_output",
      "weights" : {

      },
      "pad_mode" : 1,
      "Nx" : 1,
      "pad_value" : 0,
      "Ny" : 1,
      "n_parallel" : 1
    },
    {
      "alpha" : 1,
      "bottom" : "Cont_block_7_add_output,Cont_block_8_project_BN_output",
      "operation" : 0,
      "weights" : {

      },
      "fused_relu" : 0,
      "top" : "Cont_block_8_add_output",
      "type" : "elementwise",
      "name" : "Cont_block_8_add",
      "beta" : 0
    },
    {
      "alpha" : 1,
      "bottom" : "Lips_block_7_add_output,Lips_block_8_project_BN_output",
      "operation" : 0,
      "weights" : {

      },
      "fused_relu" : 0,
      "top" : "Lips_block_8_add_output",
      "type" : "elementwise",
      "name" : "Lips_block_8_add",
      "beta" : 0
    },
    {
      "alpha" : 1,
      "bottom" : "RE_block_7_add_output,RE_block_8_project_BN_output",
      "operation" : 0,
      "weights" : {

      },
      "fused_relu" : 0,
      "top" : "RE_block_8_add_output",
      "type" : "elementwise",
      "name" : "RE_block_8_add",
      "beta" : 0
    },
    {
      "alpha" : 1,
      "bottom" : "LE_block_7_add_output,LE_block_8_project_BN_output",
      "operation" : 0,
      "weights" : {

      },
      "fused_relu" : 0,
      "top" : "LE_block_8_add_output",
      "type" : "elementwise",
      "name" : "LE_block_8_add",
      "beta" : 0
    },
    {
      "pad_r" : 0,
      "fused_relu" : 0,
      "fused_tanh" : 0,
      "pad_fill_mode" : 0,
      "pad_b" : 0,
      "pad_l" : 0,
      "top" : "Cont_block_9_expand_BN_output",
      "blob_weights" : 387,
      "K" : 8,
      "blob_biases" : 385,
      "name" : "Cont_block_9_expand",
      "has_batch_norm" : 0,
      "type" : "convolution",
      "n_groups" : 1,
      "pad_t" : 0,
      "has_biases" : 1,
      "C" : 48,
      "bottom" : "Cont_block_8_add_output",
      "weights" : {

      },
      "pad_mode" : 1,
      "Nx" : 1,
      "pad_value" : 0,
      "Ny" : 1,
      "n_parallel" : 1
    },
    {
      "pad_r" : 0,
      "fused_relu" : 0,
      "fused_tanh" : 0,
      "pad_fill_mode" : 0,
      "pad_b" : 0,
      "pad_l" : 0,
      "top" : "Lips_block_9_expand_BN_output",
      "blob_weights" : 391,
      "K" : 8,
      "blob_biases" : 389,
      "name" : "Lips_block_9_expand",
      "has_batch_norm" : 0,
      "type" : "convolution",
      "n_groups" : 1,
      "pad_t" : 0,
      "has_biases" : 1,
      "C" : 48,
      "bottom" : "Lips_block_8_add_output",
      "weights" : {

      },
      "pad_mode" : 1,
      "Nx" : 1,
      "pad_value" : 0,
      "Ny" : 1,
      "n_parallel" : 1
    },
    {
      "pad_r" : 0,
      "fused_relu" : 0,
      "fused_tanh" : 0,
      "pad_fill_mode" : 0,
      "pad_b" : 0,
      "pad_l" : 0,
      "top" : "RE_block_9_expand_BN_output",
      "blob_weights" : 395,
      "K" : 8,
      "blob_biases" : 393,
      "name" : "RE_block_9_expand",
      "has_batch_norm" : 0,
      "type" : "convolution",
      "n_groups" : 1,
      "pad_t" : 0,
      "has_biases" : 1,
      "C" : 48,
      "bottom" : "RE_block_8_add_output",
      "weights" : {

      },
      "pad_mode" : 1,
      "Nx" : 1,
      "pad_value" : 0,
      "Ny" : 1,
      "n_parallel" : 1
    },
    {
      "pad_r" : 0,
      "fused_relu" : 0,
      "fused_tanh" : 0,
      "pad_fill_mode" : 0,
      "pad_b" : 0,
      "pad_l" : 0,
      "top" : "LE_block_9_expand_BN_output",
      "blob_weights" : 399,
      "K" : 8,
      "blob_biases" : 397,
      "name" : "LE_block_9_expand",
      "has_batch_norm" : 0,
      "type" : "convolution",
      "n_groups" : 1,
      "pad_t" : 0,
      "has_biases" : 1,
      "C" : 48,
      "bottom" : "LE_block_8_add_output",
      "weights" : {

      },
      "pad_mode" : 1,
      "Nx" : 1,
      "pad_value" : 0,
      "Ny" : 1,
      "n_parallel" : 1
    },
    {
      "mode" : 4,
      "weights" : {
        "params_prelu" : 401
      },
      "top" : "Cont_block_9_expand_relu_output",
      "type" : "activation",
      "name" : "Cont_block_9_expand_relu",
      "bottom" : "Cont_block_9_expand_BN_output"
    },
    {
      "mode" : 4,
      "weights" : {
        "params_prelu" : 403
      },
      "top" : "Lips_block_9_expand_relu_output",
      "type" : "activation",
      "name" : "Lips_block_9_expand_relu",
      "bottom" : "Lips_block_9_expand_BN_output"
    },
    {
      "mode" : 4,
      "weights" : {
        "params_prelu" : 405
      },
      "top" : "RE_block_9_expand_relu_output",
      "type" : "activation",
      "name" : "RE_block_9_expand_relu",
      "bottom" : "RE_block_9_expand_BN_output"
    },
    {
      "mode" : 4,
      "weights" : {
        "params_prelu" : 407
      },
      "top" : "LE_block_9_expand_relu_output",
      "type" : "activation",
      "name" : "LE_block_9_expand_relu",
      "bottom" : "LE_block_9_expand_BN_output"
    },
    {
      "pad_r" : 0,
      "fused_relu" : 0,
      "fused_tanh" : 0,
      "pad_fill_mode" : 0,
      "pad_b" : 0,
      "pad_l" : 0,
      "top" : "Cont_block_9_depthwise_BN_output",
      "blob_weights" : 411,
      "K" : 48,
      "blob_biases" : 409,
      "name" : "Cont_block_9_depthwise",
      "has_batch_norm" : 0,
      "type" : "convolution",
      "n_groups" : 48,
      "pad_t" : 0,
      "has_biases" : 1,
      "C" : 48,
      "bottom" : "Cont_block_9_expand_relu_output",
      "weights" : {

      },
      "pad_mode" : 1,
      "Nx" : 3,
      "pad_value" : 0,
      "Ny" : 3,
      "n_parallel" : 1
    },
    {
      "pad_r" : 0,
      "fused_relu" : 0,
      "fused_tanh" : 0,
      "pad_fill_mode" : 0,
      "pad_b" : 0,
      "pad_l" : 0,
      "top" : "Lips_block_9_depthwise_BN_output",
      "blob_weights" : 415,
      "K" : 48,
      "blob_biases" : 413,
      "name" : "Lips_block_9_depthwise",
      "has_batch_norm" : 0,
      "type" : "convolution",
      "n_groups" : 48,
      "pad_t" : 0,
      "has_biases" : 1,
      "C" : 48,
      "bottom" : "Lips_block_9_expand_relu_output",
      "weights" : {

      },
      "pad_mode" : 1,
      "Nx" : 3,
      "pad_value" : 0,
      "Ny" : 3,
      "n_parallel" : 1
    },
    {
      "pad_r" : 0,
      "fused_relu" : 0,
      "fused_tanh" : 0,
      "pad_fill_mode" : 0,
      "pad_b" : 0,
      "pad_l" : 0,
      "top" : "RE_block_9_depthwise_BN_output",
      "blob_weights" : 419,
      "K" : 48,
      "blob_biases" : 417,
      "name" : "RE_block_9_depthwise",
      "has_batch_norm" : 0,
      "type" : "convolution",
      "n_groups" : 48,
      "pad_t" : 0,
      "has_biases" : 1,
      "C" : 48,
      "bottom" : "RE_block_9_expand_relu_output",
      "weights" : {

      },
      "pad_mode" : 1,
      "Nx" : 3,
      "pad_value" : 0,
      "Ny" : 3,
      "n_parallel" : 1
    },
    {
      "pad_r" : 0,
      "fused_relu" : 0,
      "fused_tanh" : 0,
      "pad_fill_mode" : 0,
      "pad_b" : 0,
      "pad_l" : 0,
      "top" : "LE_block_9_depthwise_BN_output",
      "blob_weights" : 423,
      "K" : 48,
      "blob_biases" : 421,
      "name" : "LE_block_9_depthwise",
      "has_batch_norm" : 0,
      "type" : "convolution",
      "n_groups" : 48,
      "pad_t" : 0,
      "has_biases" : 1,
      "C" : 48,
      "bottom" : "LE_block_9_expand_relu_output",
      "weights" : {

      },
      "pad_mode" : 1,
      "Nx" : 3,
      "pad_value" : 0,
      "Ny" : 3,
      "n_parallel" : 1
    },
    {
      "mode" : 4,
      "weights" : {
        "params_prelu" : 425
      },
      "top" : "Cont_block_9_depthwise_relu_output",
      "type" : "activation",
      "name" : "Cont_block_9_depthwise_relu",
      "bottom" : "Cont_block_9_depthwise_BN_output"
    },
    {
      "mode" : 4,
      "weights" : {
        "params_prelu" : 427
      },
      "top" : "Lips_block_9_depthwise_relu_output",
      "type" : "activation",
      "name" : "Lips_block_9_depthwise_relu",
      "bottom" : "Lips_block_9_depthwise_BN_output"
    },
    {
      "mode" : 4,
      "weights" : {
        "params_prelu" : 429
      },
      "top" : "RE_block_9_depthwise_relu_output",
      "type" : "activation",
      "name" : "RE_block_9_depthwise_relu",
      "bottom" : "RE_block_9_depthwise_BN_output"
    },
    {
      "mode" : 4,
      "weights" : {
        "params_prelu" : 431
      },
      "top" : "LE_block_9_depthwise_relu_output",
      "type" : "activation",
      "name" : "LE_block_9_depthwise_relu",
      "bottom" : "LE_block_9_depthwise_BN_output"
    },
    {
      "pad_r" : 0,
      "fused_relu" : 0,
      "fused_tanh" : 0,
      "pad_fill_mode" : 0,
      "pad_b" : 0,
      "pad_l" : 0,
      "top" : "Cont_block_9_project_BN_output",
      "blob_weights" : 435,
      "K" : 48,
      "blob_biases" : 433,
      "name" : "Cont_block_9_project",
      "has_batch_norm" : 0,
      "type" : "convolution",
      "n_groups" : 1,
      "pad_t" : 0,
      "has_biases" : 1,
      "C" : 8,
      "bottom" : "Cont_block_9_depthwise_relu_output",
      "weights" : {

      },
      "pad_mode" : 1,
      "Nx" : 1,
      "pad_value" : 0,
      "Ny" : 1,
      "n_parallel" : 1
    },
    {
      "pad_r" : 0,
      "fused_relu" : 0,
      "fused_tanh" : 0,
      "pad_fill_mode" : 0,
      "pad_b" : 0,
      "pad_l" : 0,
      "top" : "Lips_block_9_project_BN_output",
      "blob_weights" : 439,
      "K" : 48,
      "blob_biases" : 437,
      "name" : "Lips_block_9_project",
      "has_batch_norm" : 0,
      "type" : "convolution",
      "n_groups" : 1,
      "pad_t" : 0,
      "has_biases" : 1,
      "C" : 8,
      "bottom" : "Lips_block_9_depthwise_relu_output",
      "weights" : {

      },
      "pad_mode" : 1,
      "Nx" : 1,
      "pad_value" : 0,
      "Ny" : 1,
      "n_parallel" : 1
    },
    {
      "pad_r" : 0,
      "fused_relu" : 0,
      "fused_tanh" : 0,
      "pad_fill_mode" : 0,
      "pad_b" : 0,
      "pad_l" : 0,
      "top" : "RE_block_9_project_BN_output",
      "blob_weights" : 443,
      "K" : 48,
      "blob_biases" : 441,
      "name" : "RE_block_9_project",
      "has_batch_norm" : 0,
      "type" : "convolution",
      "n_groups" : 1,
      "pad_t" : 0,
      "has_biases" : 1,
      "C" : 8,
      "bottom" : "RE_block_9_depthwise_relu_output",
      "weights" : {

      },
      "pad_mode" : 1,
      "Nx" : 1,
      "pad_value" : 0,
      "Ny" : 1,
      "n_parallel" : 1
    },
    {
      "pad_r" : 0,
      "fused_relu" : 0,
      "fused_tanh" : 0,
      "pad_fill_mode" : 0,
      "pad_b" : 0,
      "pad_l" : 0,
      "top" : "LE_block_9_project_BN_output",
      "blob_weights" : 447,
      "K" : 48,
      "blob_biases" : 445,
      "name" : "LE_block_9_project",
      "has_batch_norm" : 0,
      "type" : "convolution",
      "n_groups" : 1,
      "pad_t" : 0,
      "has_biases" : 1,
      "C" : 8,
      "bottom" : "LE_block_9_depthwise_relu_output",
      "weights" : {

      },
      "pad_mode" : 1,
      "Nx" : 1,
      "pad_value" : 0,
      "Ny" : 1,
      "n_parallel" : 1
    },
    {
      "alpha" : 1,
      "bottom" : "Cont_block_8_add_output,Cont_block_9_project_BN_output",
      "operation" : 0,
      "weights" : {

      },
      "fused_relu" : 0,
      "top" : "Cont_block_9_add_output",
      "type" : "elementwise",
      "name" : "Cont_block_9_add",
      "beta" : 0
    },
    {
      "alpha" : 1,
      "bottom" : "Lips_block_8_add_output,Lips_block_9_project_BN_output",
      "operation" : 0,
      "weights" : {

      },
      "fused_relu" : 0,
      "top" : "Lips_block_9_add_output",
      "type" : "elementwise",
      "name" : "Lips_block_9_add",
      "beta" : 0
    },
    {
      "alpha" : 1,
      "bottom" : "RE_block_8_add_output,RE_block_9_project_BN_output",
      "operation" : 0,
      "weights" : {

      },
      "fused_relu" : 0,
      "top" : "RE_block_9_add_output",
      "type" : "elementwise",
      "name" : "RE_block_9_add",
      "beta" : 0
    },
    {
      "alpha" : 1,
      "bottom" : "LE_block_8_add_output,LE_block_9_project_BN_output",
      "operation" : 0,
      "weights" : {

      },
      "fused_relu" : 0,
      "top" : "LE_block_9_add_output",
      "type" : "elementwise",
      "name" : "LE_block_9_add",
      "beta" : 0
    },
    {
      "pad_r" : 0,
      "fused_relu" : 0,
      "fused_tanh" : 0,
      "pad_fill_mode" : 0,
      "pad_b" : 0,
      "pad_l" : 0,
      "top" : "Cont_block_10_expand_BN_output",
      "blob_weights" : 451,
      "K" : 8,
      "blob_biases" : 449,
      "name" : "Cont_block_10_expand",
      "has_batch_norm" : 0,
      "type" : "convolution",
      "n_groups" : 1,
      "pad_t" : 0,
      "has_biases" : 1,
      "C" : 48,
      "bottom" : "Cont_block_9_add_output",
      "weights" : {

      },
      "pad_mode" : 1,
      "Nx" : 1,
      "pad_value" : 0,
      "Ny" : 1,
      "n_parallel" : 1
    },
    {
      "pad_r" : 0,
      "fused_relu" : 0,
      "fused_tanh" : 0,
      "pad_fill_mode" : 0,
      "pad_b" : 0,
      "pad_l" : 0,
      "top" : "Lips_block_10_expand_BN_output",
      "blob_weights" : 455,
      "K" : 8,
      "blob_biases" : 453,
      "name" : "Lips_block_10_expand",
      "has_batch_norm" : 0,
      "type" : "convolution",
      "n_groups" : 1,
      "pad_t" : 0,
      "has_biases" : 1,
      "C" : 48,
      "bottom" : "Lips_block_9_add_output",
      "weights" : {

      },
      "pad_mode" : 1,
      "Nx" : 1,
      "pad_value" : 0,
      "Ny" : 1,
      "n_parallel" : 1
    },
    {
      "pad_r" : 0,
      "fused_relu" : 0,
      "fused_tanh" : 0,
      "pad_fill_mode" : 0,
      "pad_b" : 0,
      "pad_l" : 0,
      "top" : "RE_block_10_expand_BN_output",
      "blob_weights" : 459,
      "K" : 8,
      "blob_biases" : 457,
      "name" : "RE_block_10_expand",
      "has_batch_norm" : 0,
      "type" : "convolution",
      "n_groups" : 1,
      "pad_t" : 0,
      "has_biases" : 1,
      "C" : 48,
      "bottom" : "RE_block_9_add_output",
      "weights" : {

      },
      "pad_mode" : 1,
      "Nx" : 1,
      "pad_value" : 0,
      "Ny" : 1,
      "n_parallel" : 1
    },
    {
      "pad_r" : 0,
      "fused_relu" : 0,
      "fused_tanh" : 0,
      "pad_fill_mode" : 0,
      "pad_b" : 0,
      "pad_l" : 0,
      "top" : "LE_block_10_expand_BN_output",
      "blob_weights" : 463,
      "K" : 8,
      "blob_biases" : 461,
      "name" : "LE_block_10_expand",
      "has_batch_norm" : 0,
      "type" : "convolution",
      "n_groups" : 1,
      "pad_t" : 0,
      "has_biases" : 1,
      "C" : 48,
      "bottom" : "LE_block_9_add_output",
      "weights" : {

      },
      "pad_mode" : 1,
      "Nx" : 1,
      "pad_value" : 0,
      "Ny" : 1,
      "n_parallel" : 1
    },
    {
      "mode" : 4,
      "weights" : {
        "params_prelu" : 465
      },
      "top" : "Cont_block_10_expand_relu_output",
      "type" : "activation",
      "name" : "Cont_block_10_expand_relu",
      "bottom" : "Cont_block_10_expand_BN_output"
    },
    {
      "mode" : 4,
      "weights" : {
        "params_prelu" : 467
      },
      "top" : "Lips_block_10_expand_relu_output",
      "type" : "activation",
      "name" : "Lips_block_10_expand_relu",
      "bottom" : "Lips_block_10_expand_BN_output"
    },
    {
      "mode" : 4,
      "weights" : {
        "params_prelu" : 469
      },
      "top" : "RE_block_10_expand_relu_output",
      "type" : "activation",
      "name" : "RE_block_10_expand_relu",
      "bottom" : "RE_block_10_expand_BN_output"
    },
    {
      "mode" : 4,
      "weights" : {
        "params_prelu" : 471
      },
      "top" : "LE_block_10_expand_relu_output",
      "type" : "activation",
      "name" : "LE_block_10_expand_relu",
      "bottom" : "LE_block_10_expand_BN_output"
    },
    {
      "pad_r" : 0,
      "fused_relu" : 0,
      "fused_tanh" : 0,
      "pad_fill_mode" : 0,
      "pad_b" : 0,
      "pad_l" : 0,
      "top" : "Cont_block_10_depthwise_BN_output",
      "blob_weights" : 475,
      "K" : 48,
      "blob_biases" : 473,
      "name" : "Cont_block_10_depthwise",
      "has_batch_norm" : 0,
      "type" : "convolution",
      "n_groups" : 48,
      "pad_t" : 0,
      "has_biases" : 1,
      "C" : 48,
      "bottom" : "Cont_block_10_expand_relu_output",
      "weights" : {

      },
      "pad_mode" : 1,
      "Nx" : 3,
      "pad_value" : 0,
      "Ny" : 3,
      "n_parallel" : 1
    },
    {
      "pad_r" : 0,
      "fused_relu" : 0,
      "fused_tanh" : 0,
      "pad_fill_mode" : 0,
      "pad_b" : 0,
      "pad_l" : 0,
      "top" : "Lips_block_10_depthwise_BN_output",
      "blob_weights" : 479,
      "K" : 48,
      "blob_biases" : 477,
      "name" : "Lips_block_10_depthwise",
      "has_batch_norm" : 0,
      "type" : "convolution",
      "n_groups" : 48,
      "pad_t" : 0,
      "has_biases" : 1,
      "C" : 48,
      "bottom" : "Lips_block_10_expand_relu_output",
      "weights" : {

      },
      "pad_mode" : 1,
      "Nx" : 3,
      "pad_value" : 0,
      "Ny" : 3,
      "n_parallel" : 1
    },
    {
      "pad_r" : 0,
      "fused_relu" : 0,
      "fused_tanh" : 0,
      "pad_fill_mode" : 0,
      "pad_b" : 0,
      "pad_l" : 0,
      "top" : "RE_block_10_depthwise_BN_output",
      "blob_weights" : 483,
      "K" : 48,
      "blob_biases" : 481,
      "name" : "RE_block_10_depthwise",
      "has_batch_norm" : 0,
      "type" : "convolution",
      "n_groups" : 48,
      "pad_t" : 0,
      "has_biases" : 1,
      "C" : 48,
      "bottom" : "RE_block_10_expand_relu_output",
      "weights" : {

      },
      "pad_mode" : 1,
      "Nx" : 3,
      "pad_value" : 0,
      "Ny" : 3,
      "n_parallel" : 1
    },
    {
      "pad_r" : 0,
      "fused_relu" : 0,
      "fused_tanh" : 0,
      "pad_fill_mode" : 0,
      "pad_b" : 0,
      "pad_l" : 0,
      "top" : "LE_block_10_depthwise_BN_output",
      "blob_weights" : 487,
      "K" : 48,
      "blob_biases" : 485,
      "name" : "LE_block_10_depthwise",
      "has_batch_norm" : 0,
      "type" : "convolution",
      "n_groups" : 48,
      "pad_t" : 0,
      "has_biases" : 1,
      "C" : 48,
      "bottom" : "LE_block_10_expand_relu_output",
      "weights" : {

      },
      "pad_mode" : 1,
      "Nx" : 3,
      "pad_value" : 0,
      "Ny" : 3,
      "n_parallel" : 1
    },
    {
      "mode" : 4,
      "weights" : {
        "params_prelu" : 489
      },
      "top" : "Cont_block_10_depthwise_relu_output",
      "type" : "activation",
      "name" : "Cont_block_10_depthwise_relu",
      "bottom" : "Cont_block_10_depthwise_BN_output"
    },
    {
      "mode" : 4,
      "weights" : {
        "params_prelu" : 491
      },
      "top" : "Lips_block_10_depthwise_relu_output",
      "type" : "activation",
      "name" : "Lips_block_10_depthwise_relu",
      "bottom" : "Lips_block_10_depthwise_BN_output"
    },
    {
      "mode" : 4,
      "weights" : {
        "params_prelu" : 493
      },
      "top" : "RE_block_10_depthwise_relu_output",
      "type" : "activation",
      "name" : "RE_block_10_depthwise_relu",
      "bottom" : "RE_block_10_depthwise_BN_output"
    },
    {
      "mode" : 4,
      "weights" : {
        "params_prelu" : 495
      },
      "top" : "LE_block_10_depthwise_relu_output",
      "type" : "activation",
      "name" : "LE_block_10_depthwise_relu",
      "bottom" : "LE_block_10_depthwise_BN_output"
    },
    {
      "pad_r" : 0,
      "fused_relu" : 0,
      "fused_tanh" : 0,
      "pad_fill_mode" : 0,
      "pad_b" : 0,
      "pad_l" : 0,
      "top" : "Cont_block_10_project_BN_output",
      "blob_weights" : 499,
      "K" : 48,
      "blob_biases" : 497,
      "name" : "Cont_block_10_project",
      "has_batch_norm" : 0,
      "type" : "convolution",
      "n_groups" : 1,
      "pad_t" : 0,
      "has_biases" : 1,
      "C" : 12,
      "bottom" : "Cont_block_10_depthwise_relu_output",
      "weights" : {

      },
      "pad_mode" : 1,
      "Nx" : 1,
      "pad_value" : 0,
      "Ny" : 1,
      "n_parallel" : 1
    },
    {
      "pad_r" : 0,
      "fused_relu" : 0,
      "fused_tanh" : 0,
      "pad_fill_mode" : 0,
      "pad_b" : 0,
      "pad_l" : 0,
      "top" : "Lips_block_10_project_BN_output",
      "blob_weights" : 503,
      "K" : 48,
      "blob_biases" : 501,
      "name" : "Lips_block_10_project",
      "has_batch_norm" : 0,
      "type" : "convolution",
      "n_groups" : 1,
      "pad_t" : 0,
      "has_biases" : 1,
      "C" : 12,
      "bottom" : "Lips_block_10_depthwise_relu_output",
      "weights" : {

      },
      "pad_mode" : 1,
      "Nx" : 1,
      "pad_value" : 0,
      "Ny" : 1,
      "n_parallel" : 1
    },
    {
      "pad_r" : 0,
      "fused_relu" : 0,
      "fused_tanh" : 0,
      "pad_fill_mode" : 0,
      "pad_b" : 0,
      "pad_l" : 0,
      "top" : "RE_block_10_project_BN_output",
      "blob_weights" : 507,
      "K" : 48,
      "blob_biases" : 505,
      "name" : "RE_block_10_project",
      "has_batch_norm" : 0,
      "type" : "convolution",
      "n_groups" : 1,
      "pad_t" : 0,
      "has_biases" : 1,
      "C" : 12,
      "bottom" : "RE_block_10_depthwise_relu_output",
      "weights" : {

      },
      "pad_mode" : 1,
      "Nx" : 1,
      "pad_value" : 0,
      "Ny" : 1,
      "n_parallel" : 1
    },
    {
      "pad_r" : 0,
      "fused_relu" : 0,
      "fused_tanh" : 0,
      "pad_fill_mode" : 0,
      "pad_b" : 0,
      "pad_l" : 0,
      "top" : "LE_block_10_project_BN_output",
      "blob_weights" : 511,
      "K" : 48,
      "blob_biases" : 509,
      "name" : "LE_block_10_project",
      "has_batch_norm" : 0,
      "type" : "convolution",
      "n_groups" : 1,
      "pad_t" : 0,
      "has_biases" : 1,
      "C" : 12,
      "bottom" : "LE_block_10_depthwise_relu_output",
      "weights" : {

      },
      "pad_mode" : 1,
      "Nx" : 1,
      "pad_value" : 0,
      "Ny" : 1,
      "n_parallel" : 1
    },
    {
      "pad_r" : 0,
      "fused_relu" : 0,
      "fused_tanh" : 0,
      "pad_fill_mode" : 0,
      "pad_b" : 0,
      "pad_l" : 0,
      "top" : "Cont_block_11_expand_BN_output",
      "blob_weights" : 515,
      "K" : 12,
      "blob_biases" : 513,
      "name" : "Cont_block_11_expand",
      "has_batch_norm" : 0,
      "type" : "convolution",
      "n_groups" : 1,
      "pad_t" : 0,
      "has_biases" : 1,
      "C" : 72,
      "bottom" : "Cont_block_10_project_BN_output",
      "weights" : {

      },
      "pad_mode" : 1,
      "Nx" : 1,
      "pad_value" : 0,
      "Ny" : 1,
      "n_parallel" : 1
    },
    {
      "pad_r" : 0,
      "fused_relu" : 0,
      "fused_tanh" : 0,
      "pad_fill_mode" : 0,
      "pad_b" : 0,
      "pad_l" : 0,
      "top" : "Lips_block_11_expand_BN_output",
      "blob_weights" : 519,
      "K" : 12,
      "blob_biases" : 517,
      "name" : "Lips_block_11_expand",
      "has_batch_norm" : 0,
      "type" : "convolution",
      "n_groups" : 1,
      "pad_t" : 0,
      "has_biases" : 1,
      "C" : 72,
      "bottom" : "Lips_block_10_project_BN_output",
      "weights" : {

      },
      "pad_mode" : 1,
      "Nx" : 1,
      "pad_value" : 0,
      "Ny" : 1,
      "n_parallel" : 1
    },
    {
      "pad_r" : 0,
      "fused_relu" : 0,
      "fused_tanh" : 0,
      "pad_fill_mode" : 0,
      "pad_b" : 0,
      "pad_l" : 0,
      "top" : "RE_block_11_expand_BN_output",
      "blob_weights" : 523,
      "K" : 12,
      "blob_biases" : 521,
      "name" : "RE_block_11_expand",
      "has_batch_norm" : 0,
      "type" : "convolution",
      "n_groups" : 1,
      "pad_t" : 0,
      "has_biases" : 1,
      "C" : 72,
      "bottom" : "RE_block_10_project_BN_output",
      "weights" : {

      },
      "pad_mode" : 1,
      "Nx" : 1,
      "pad_value" : 0,
      "Ny" : 1,
      "n_parallel" : 1
    },
    {
      "pad_r" : 0,
      "fused_relu" : 0,
      "fused_tanh" : 0,
      "pad_fill_mode" : 0,
      "pad_b" : 0,
      "pad_l" : 0,
      "top" : "LE_block_11_expand_BN_output",
      "blob_weights" : 527,
      "K" : 12,
      "blob_biases" : 525,
      "name" : "LE_block_11_expand",
      "has_batch_norm" : 0,
      "type" : "convolution",
      "n_groups" : 1,
      "pad_t" : 0,
      "has_biases" : 1,
      "C" : 72,
      "bottom" : "LE_block_10_project_BN_output",
      "weights" : {

      },
      "pad_mode" : 1,
      "Nx" : 1,
      "pad_value" : 0,
      "Ny" : 1,
      "n_parallel" : 1
    },
    {
      "mode" : 4,
      "weights" : {
        "params_prelu" : 529
      },
      "top" : "Cont_block_11_expand_relu_output",
      "type" : "activation",
      "name" : "Cont_block_11_expand_relu",
      "bottom" : "Cont_block_11_expand_BN_output"
    },
    {
      "mode" : 4,
      "weights" : {
        "params_prelu" : 531
      },
      "top" : "Lips_block_11_expand_relu_output",
      "type" : "activation",
      "name" : "Lips_block_11_expand_relu",
      "bottom" : "Lips_block_11_expand_BN_output"
    },
    {
      "mode" : 4,
      "weights" : {
        "params_prelu" : 533
      },
      "top" : "RE_block_11_expand_relu_output",
      "type" : "activation",
      "name" : "RE_block_11_expand_relu",
      "bottom" : "RE_block_11_expand_BN_output"
    },
    {
      "mode" : 4,
      "weights" : {
        "params_prelu" : 535
      },
      "top" : "LE_block_11_expand_relu_output",
      "type" : "activation",
      "name" : "LE_block_11_expand_relu",
      "bottom" : "LE_block_11_expand_BN_output"
    },
    {
      "pad_r" : 0,
      "fused_relu" : 0,
      "fused_tanh" : 0,
      "pad_fill_mode" : 0,
      "pad_b" : 0,
      "pad_l" : 0,
      "top" : "Cont_block_11_depthwise_BN_output",
      "blob_weights" : 539,
      "K" : 72,
      "blob_biases" : 537,
      "name" : "Cont_block_11_depthwise",
      "has_batch_norm" : 0,
      "type" : "convolution",
      "n_groups" : 72,
      "pad_t" : 0,
      "has_biases" : 1,
      "C" : 72,
      "bottom" : "Cont_block_11_expand_relu_output",
      "weights" : {

      },
      "pad_mode" : 1,
      "Nx" : 3,
      "pad_value" : 0,
      "Ny" : 3,
      "n_parallel" : 1
    },
    {
      "pad_r" : 0,
      "fused_relu" : 0,
      "fused_tanh" : 0,
      "pad_fill_mode" : 0,
      "pad_b" : 0,
      "pad_l" : 0,
      "top" : "Lips_block_11_depthwise_BN_output",
      "blob_weights" : 543,
      "K" : 72,
      "blob_biases" : 541,
      "name" : "Lips_block_11_depthwise",
      "has_batch_norm" : 0,
      "type" : "convolution",
      "n_groups" : 72,
      "pad_t" : 0,
      "has_biases" : 1,
      "C" : 72,
      "bottom" : "Lips_block_11_expand_relu_output",
      "weights" : {

      },
      "pad_mode" : 1,
      "Nx" : 3,
      "pad_value" : 0,
      "Ny" : 3,
      "n_parallel" : 1
    },
    {
      "pad_r" : 0,
      "fused_relu" : 0,
      "fused_tanh" : 0,
      "pad_fill_mode" : 0,
      "pad_b" : 0,
      "pad_l" : 0,
      "top" : "RE_block_11_depthwise_BN_output",
      "blob_weights" : 547,
      "K" : 72,
      "blob_biases" : 545,
      "name" : "RE_block_11_depthwise",
      "has_batch_norm" : 0,
      "type" : "convolution",
      "n_groups" : 72,
      "pad_t" : 0,
      "has_biases" : 1,
      "C" : 72,
      "bottom" : "RE_block_11_expand_relu_output",
      "weights" : {

      },
      "pad_mode" : 1,
      "Nx" : 3,
      "pad_value" : 0,
      "Ny" : 3,
      "n_parallel" : 1
    },
    {
      "pad_r" : 0,
      "fused_relu" : 0,
      "fused_tanh" : 0,
      "pad_fill_mode" : 0,
      "pad_b" : 0,
      "pad_l" : 0,
      "top" : "LE_block_11_depthwise_BN_output",
      "blob_weights" : 551,
      "K" : 72,
      "blob_biases" : 549,
      "name" : "LE_block_11_depthwise",
      "has_batch_norm" : 0,
      "type" : "convolution",
      "n_groups" : 72,
      "pad_t" : 0,
      "has_biases" : 1,
      "C" : 72,
      "bottom" : "LE_block_11_expand_relu_output",
      "weights" : {

      },
      "pad_mode" : 1,
      "Nx" : 3,
      "pad_value" : 0,
      "Ny" : 3,
      "n_parallel" : 1
    },
    {
      "mode" : 4,
      "weights" : {
        "params_prelu" : 553
      },
      "top" : "Cont_block_11_depthwise_relu_output",
      "type" : "activation",
      "name" : "Cont_block_11_depthwise_relu",
      "bottom" : "Cont_block_11_depthwise_BN_output"
    },
    {
      "mode" : 4,
      "weights" : {
        "params_prelu" : 555
      },
      "top" : "Lips_block_11_depthwise_relu_output",
      "type" : "activation",
      "name" : "Lips_block_11_depthwise_relu",
      "bottom" : "Lips_block_11_depthwise_BN_output"
    },
    {
      "mode" : 4,
      "weights" : {
        "params_prelu" : 557
      },
      "top" : "RE_block_11_depthwise_relu_output",
      "type" : "activation",
      "name" : "RE_block_11_depthwise_relu",
      "bottom" : "RE_block_11_depthwise_BN_output"
    },
    {
      "mode" : 4,
      "weights" : {
        "params_prelu" : 559
      },
      "top" : "LE_block_11_depthwise_relu_output",
      "type" : "activation",
      "name" : "LE_block_11_depthwise_relu",
      "bottom" : "LE_block_11_depthwise_BN_output"
    },
    {
      "pad_r" : 0,
      "fused_relu" : 0,
      "fused_tanh" : 0,
      "pad_fill_mode" : 0,
      "pad_b" : 0,
      "pad_l" : 0,
      "top" : "Cont_block_11_project_BN_output",
      "blob_weights" : 563,
      "K" : 72,
      "blob_biases" : 561,
      "name" : "Cont_block_11_project",
      "has_batch_norm" : 0,
      "type" : "convolution",
      "n_groups" : 1,
      "pad_t" : 0,
      "has_biases" : 1,
      "C" : 12,
      "bottom" : "Cont_block_11_depthwise_relu_output",
      "weights" : {

      },
      "pad_mode" : 1,
      "Nx" : 1,
      "pad_value" : 0,
      "Ny" : 1,
      "n_parallel" : 1
    },
    {
      "pad_r" : 0,
      "fused_relu" : 0,
      "fused_tanh" : 0,
      "pad_fill_mode" : 0,
      "pad_b" : 0,
      "pad_l" : 0,
      "top" : "Lips_block_11_project_BN_output",
      "blob_weights" : 567,
      "K" : 72,
      "blob_biases" : 565,
      "name" : "Lips_block_11_project",
      "has_batch_norm" : 0,
      "type" : "convolution",
      "n_groups" : 1,
      "pad_t" : 0,
      "has_biases" : 1,
      "C" : 12,
      "bottom" : "Lips_block_11_depthwise_relu_output",
      "weights" : {

      },
      "pad_mode" : 1,
      "Nx" : 1,
      "pad_value" : 0,
      "Ny" : 1,
      "n_parallel" : 1
    },
    {
      "pad_r" : 0,
      "fused_relu" : 0,
      "fused_tanh" : 0,
      "pad_fill_mode" : 0,
      "pad_b" : 0,
      "pad_l" : 0,
      "top" : "RE_block_11_project_BN_output",
      "blob_weights" : 571,
      "K" : 72,
      "blob_biases" : 569,
      "name" : "RE_block_11_project",
      "has_batch_norm" : 0,
      "type" : "convolution",
      "n_groups" : 1,
      "pad_t" : 0,
      "has_biases" : 1,
      "C" : 12,
      "bottom" : "RE_block_11_depthwise_relu_output",
      "weights" : {

      },
      "pad_mode" : 1,
      "Nx" : 1,
      "pad_value" : 0,
      "Ny" : 1,
      "n_parallel" : 1
    },
    {
      "pad_r" : 0,
      "fused_relu" : 0,
      "fused_tanh" : 0,
      "pad_fill_mode" : 0,
      "pad_b" : 0,
      "pad_l" : 0,
      "top" : "LE_block_11_project_BN_output",
      "blob_weights" : 575,
      "K" : 72,
      "blob_biases" : 573,
      "name" : "LE_block_11_project",
      "has_batch_norm" : 0,
      "type" : "convolution",
      "n_groups" : 1,
      "pad_t" : 0,
      "has_biases" : 1,
      "C" : 12,
      "bottom" : "LE_block_11_depthwise_relu_output",
      "weights" : {

      },
      "pad_mode" : 1,
      "Nx" : 1,
      "pad_value" : 0,
      "Ny" : 1,
      "n_parallel" : 1
    },
    {
      "alpha" : 1,
      "bottom" : "Cont_block_10_project_BN_output,Cont_block_11_project_BN_output",
      "operation" : 0,
      "weights" : {

      },
      "fused_relu" : 0,
      "top" : "Cont_block_11_add_output",
      "type" : "elementwise",
      "name" : "Cont_block_11_add",
      "beta" : 0
    },
    {
      "alpha" : 1,
      "bottom" : "Lips_block_10_project_BN_output,Lips_block_11_project_BN_output",
      "operation" : 0,
      "weights" : {

      },
      "fused_relu" : 0,
      "top" : "Lips_block_11_add_output",
      "type" : "elementwise",
      "name" : "Lips_block_11_add",
      "beta" : 0
    },
    {
      "alpha" : 1,
      "bottom" : "RE_block_10_project_BN_output,RE_block_11_project_BN_output",
      "operation" : 0,
      "weights" : {

      },
      "fused_relu" : 0,
      "top" : "RE_block_11_add_output",
      "type" : "elementwise",
      "name" : "RE_block_11_add",
      "beta" : 0
    },
    {
      "alpha" : 1,
      "bottom" : "LE_block_10_project_BN_output,LE_block_11_project_BN_output",
      "operation" : 0,
      "weights" : {

      },
      "fused_relu" : 0,
      "top" : "LE_block_11_add_output",
      "type" : "elementwise",
      "name" : "LE_block_11_add",
      "beta" : 0
    },
    {
      "pad_r" : 0,
      "fused_relu" : 0,
      "fused_tanh" : 0,
      "pad_fill_mode" : 0,
      "pad_b" : 0,
      "pad_l" : 0,
      "top" : "Cont_block_12_expand_BN_output",
      "blob_weights" : 579,
      "K" : 12,
      "blob_biases" : 577,
      "name" : "Cont_block_12_expand",
      "has_batch_norm" : 0,
      "type" : "convolution",
      "n_groups" : 1,
      "pad_t" : 0,
      "has_biases" : 1,
      "C" : 72,
      "bottom" : "Cont_block_11_add_output",
      "weights" : {

      },
      "pad_mode" : 1,
      "Nx" : 1,
      "pad_value" : 0,
      "Ny" : 1,
      "n_parallel" : 1
    },
    {
      "pad_r" : 0,
      "fused_relu" : 0,
      "fused_tanh" : 0,
      "pad_fill_mode" : 0,
      "pad_b" : 0,
      "pad_l" : 0,
      "top" : "Lips_block_12_expand_BN_output",
      "blob_weights" : 583,
      "K" : 12,
      "blob_biases" : 581,
      "name" : "Lips_block_12_expand",
      "has_batch_norm" : 0,
      "type" : "convolution",
      "n_groups" : 1,
      "pad_t" : 0,
      "has_biases" : 1,
      "C" : 72,
      "bottom" : "Lips_block_11_add_output",
      "weights" : {

      },
      "pad_mode" : 1,
      "Nx" : 1,
      "pad_value" : 0,
      "Ny" : 1,
      "n_parallel" : 1
    },
    {
      "pad_r" : 0,
      "fused_relu" : 0,
      "fused_tanh" : 0,
      "pad_fill_mode" : 0,
      "pad_b" : 0,
      "pad_l" : 0,
      "top" : "RE_block_12_expand_BN_output",
      "blob_weights" : 587,
      "K" : 12,
      "blob_biases" : 585,
      "name" : "RE_block_12_expand",
      "has_batch_norm" : 0,
      "type" : "convolution",
      "n_groups" : 1,
      "pad_t" : 0,
      "has_biases" : 1,
      "C" : 72,
      "bottom" : "RE_block_11_add_output",
      "weights" : {

      },
      "pad_mode" : 1,
      "Nx" : 1,
      "pad_value" : 0,
      "Ny" : 1,
      "n_parallel" : 1
    },
    {
      "pad_r" : 0,
      "fused_relu" : 0,
      "fused_tanh" : 0,
      "pad_fill_mode" : 0,
      "pad_b" : 0,
      "pad_l" : 0,
      "top" : "LE_block_12_expand_BN_output",
      "blob_weights" : 591,
      "K" : 12,
      "blob_biases" : 589,
      "name" : "LE_block_12_expand",
      "has_batch_norm" : 0,
      "type" : "convolution",
      "n_groups" : 1,
      "pad_t" : 0,
      "has_biases" : 1,
      "C" : 72,
      "bottom" : "LE_block_11_add_output",
      "weights" : {

      },
      "pad_mode" : 1,
      "Nx" : 1,
      "pad_value" : 0,
      "Ny" : 1,
      "n_parallel" : 1
    },
    {
      "mode" : 4,
      "weights" : {
        "params_prelu" : 593
      },
      "top" : "Cont_block_12_expand_relu_output",
      "type" : "activation",
      "name" : "Cont_block_12_expand_relu",
      "bottom" : "Cont_block_12_expand_BN_output"
    },
    {
      "mode" : 4,
      "weights" : {
        "params_prelu" : 595
      },
      "top" : "Lips_block_12_expand_relu_output",
      "type" : "activation",
      "name" : "Lips_block_12_expand_relu",
      "bottom" : "Lips_block_12_expand_BN_output"
    },
    {
      "mode" : 4,
      "weights" : {
        "params_prelu" : 597
      },
      "top" : "RE_block_12_expand_relu_output",
      "type" : "activation",
      "name" : "RE_block_12_expand_relu",
      "bottom" : "RE_block_12_expand_BN_output"
    },
    {
      "mode" : 4,
      "weights" : {
        "params_prelu" : 599
      },
      "top" : "LE_block_12_expand_relu_output",
      "type" : "activation",
      "name" : "LE_block_12_expand_relu",
      "bottom" : "LE_block_12_expand_BN_output"
    },
    {
      "pad_r" : 0,
      "fused_relu" : 0,
      "fused_tanh" : 0,
      "pad_fill_mode" : 0,
      "pad_b" : 0,
      "pad_l" : 0,
      "top" : "Cont_block_12_depthwise_BN_output",
      "blob_weights" : 603,
      "K" : 72,
      "blob_biases" : 601,
      "name" : "Cont_block_12_depthwise",
      "has_batch_norm" : 0,
      "type" : "convolution",
      "n_groups" : 72,
      "pad_t" : 0,
      "has_biases" : 1,
      "C" : 72,
      "bottom" : "Cont_block_12_expand_relu_output",
      "weights" : {

      },
      "pad_mode" : 1,
      "Nx" : 3,
      "pad_value" : 0,
      "Ny" : 3,
      "n_parallel" : 1
    },
    {
      "pad_r" : 0,
      "fused_relu" : 0,
      "fused_tanh" : 0,
      "pad_fill_mode" : 0,
      "pad_b" : 0,
      "pad_l" : 0,
      "top" : "Lips_block_12_depthwise_BN_output",
      "blob_weights" : 607,
      "K" : 72,
      "blob_biases" : 605,
      "name" : "Lips_block_12_depthwise",
      "has_batch_norm" : 0,
      "type" : "convolution",
      "n_groups" : 72,
      "pad_t" : 0,
      "has_biases" : 1,
      "C" : 72,
      "bottom" : "Lips_block_12_expand_relu_output",
      "weights" : {

      },
      "pad_mode" : 1,
      "Nx" : 3,
      "pad_value" : 0,
      "Ny" : 3,
      "n_parallel" : 1
    },
    {
      "pad_r" : 0,
      "fused_relu" : 0,
      "fused_tanh" : 0,
      "pad_fill_mode" : 0,
      "pad_b" : 0,
      "pad_l" : 0,
      "top" : "RE_block_12_depthwise_BN_output",
      "blob_weights" : 611,
      "K" : 72,
      "blob_biases" : 609,
      "name" : "RE_block_12_depthwise",
      "has_batch_norm" : 0,
      "type" : "convolution",
      "n_groups" : 72,
      "pad_t" : 0,
      "has_biases" : 1,
      "C" : 72,
      "bottom" : "RE_block_12_expand_relu_output",
      "weights" : {

      },
      "pad_mode" : 1,
      "Nx" : 3,
      "pad_value" : 0,
      "Ny" : 3,
      "n_parallel" : 1
    },
    {
      "pad_r" : 0,
      "fused_relu" : 0,
      "fused_tanh" : 0,
      "pad_fill_mode" : 0,
      "pad_b" : 0,
      "pad_l" : 0,
      "top" : "LE_block_12_depthwise_BN_output",
      "blob_weights" : 615,
      "K" : 72,
      "blob_biases" : 613,
      "name" : "LE_block_12_depthwise",
      "has_batch_norm" : 0,
      "type" : "convolution",
      "n_groups" : 72,
      "pad_t" : 0,
      "has_biases" : 1,
      "C" : 72,
      "bottom" : "LE_block_12_expand_relu_output",
      "weights" : {

      },
      "pad_mode" : 1,
      "Nx" : 3,
      "pad_value" : 0,
      "Ny" : 3,
      "n_parallel" : 1
    },
    {
      "mode" : 4,
      "weights" : {
        "params_prelu" : 617
      },
      "top" : "Cont_block_12_depthwise_relu_output",
      "type" : "activation",
      "name" : "Cont_block_12_depthwise_relu",
      "bottom" : "Cont_block_12_depthwise_BN_output"
    },
    {
      "mode" : 4,
      "weights" : {
        "params_prelu" : 619
      },
      "top" : "Lips_block_12_depthwise_relu_output",
      "type" : "activation",
      "name" : "Lips_block_12_depthwise_relu",
      "bottom" : "Lips_block_12_depthwise_BN_output"
    },
    {
      "mode" : 4,
      "weights" : {
        "params_prelu" : 621
      },
      "top" : "RE_block_12_depthwise_relu_output",
      "type" : "activation",
      "name" : "RE_block_12_depthwise_relu",
      "bottom" : "RE_block_12_depthwise_BN_output"
    },
    {
      "mode" : 4,
      "weights" : {
        "params_prelu" : 623
      },
      "top" : "LE_block_12_depthwise_relu_output",
      "type" : "activation",
      "name" : "LE_block_12_depthwise_relu",
      "bottom" : "LE_block_12_depthwise_BN_output"
    },
    {
      "pad_r" : 0,
      "fused_relu" : 0,
      "fused_tanh" : 0,
      "pad_fill_mode" : 0,
      "pad_b" : 0,
      "pad_l" : 0,
      "top" : "Cont_block_12_project_BN_output",
      "blob_weights" : 627,
      "K" : 72,
      "blob_biases" : 625,
      "name" : "Cont_block_12_project",
      "has_batch_norm" : 0,
      "type" : "convolution",
      "n_groups" : 1,
      "pad_t" : 0,
      "has_biases" : 1,
      "C" : 12,
      "bottom" : "Cont_block_12_depthwise_relu_output",
      "weights" : {

      },
      "pad_mode" : 1,
      "Nx" : 1,
      "pad_value" : 0,
      "Ny" : 1,
      "n_parallel" : 1
    },
    {
      "pad_r" : 0,
      "fused_relu" : 0,
      "fused_tanh" : 0,
      "pad_fill_mode" : 0,
      "pad_b" : 0,
      "pad_l" : 0,
      "top" : "Lips_block_12_project_BN_output",
      "blob_weights" : 631,
      "K" : 72,
      "blob_biases" : 629,
      "name" : "Lips_block_12_project",
      "has_batch_norm" : 0,
      "type" : "convolution",
      "n_groups" : 1,
      "pad_t" : 0,
      "has_biases" : 1,
      "C" : 12,
      "bottom" : "Lips_block_12_depthwise_relu_output",
      "weights" : {

      },
      "pad_mode" : 1,
      "Nx" : 1,
      "pad_value" : 0,
      "Ny" : 1,
      "n_parallel" : 1
    },
    {
      "pad_r" : 0,
      "fused_relu" : 0,
      "fused_tanh" : 0,
      "pad_fill_mode" : 0,
      "pad_b" : 0,
      "pad_l" : 0,
      "top" : "RE_block_12_project_BN_output",
      "blob_weights" : 635,
      "K" : 72,
      "blob_biases" : 633,
      "name" : "RE_block_12_project",
      "has_batch_norm" : 0,
      "type" : "convolution",
      "n_groups" : 1,
      "pad_t" : 0,
      "has_biases" : 1,
      "C" : 12,
      "bottom" : "RE_block_12_depthwise_relu_output",
      "weights" : {

      },
      "pad_mode" : 1,
      "Nx" : 1,
      "pad_value" : 0,
      "Ny" : 1,
      "n_parallel" : 1
    },
    {
      "pad_r" : 0,
      "fused_relu" : 0,
      "fused_tanh" : 0,
      "pad_fill_mode" : 0,
      "pad_b" : 0,
      "pad_l" : 0,
      "top" : "LE_block_12_project_BN_output",
      "blob_weights" : 639,
      "K" : 72,
      "blob_biases" : 637,
      "name" : "LE_block_12_project",
      "has_batch_norm" : 0,
      "type" : "convolution",
      "n_groups" : 1,
      "pad_t" : 0,
      "has_biases" : 1,
      "C" : 12,
      "bottom" : "LE_block_12_depthwise_relu_output",
      "weights" : {

      },
      "pad_mode" : 1,
      "Nx" : 1,
      "pad_value" : 0,
      "Ny" : 1,
      "n_parallel" : 1
    },
    {
      "alpha" : 1,
      "bottom" : "Cont_block_11_add_output,Cont_block_12_project_BN_output",
      "operation" : 0,
      "weights" : {

      },
      "fused_relu" : 0,
      "top" : "Cont_block_12_add_output",
      "type" : "elementwise",
      "name" : "Cont_block_12_add",
      "beta" : 0
    },
    {
      "alpha" : 1,
      "bottom" : "Lips_block_11_add_output,Lips_block_12_project_BN_output",
      "operation" : 0,
      "weights" : {

      },
      "fused_relu" : 0,
      "top" : "Lips_block_12_add_output",
      "type" : "elementwise",
      "name" : "Lips_block_12_add",
      "beta" : 0
    },
    {
      "alpha" : 1,
      "bottom" : "RE_block_11_add_output,RE_block_12_project_BN_output",
      "operation" : 0,
      "weights" : {

      },
      "fused_relu" : 0,
      "top" : "RE_block_12_add_output",
      "type" : "elementwise",
      "name" : "RE_block_12_add",
      "beta" : 0
    },
    {
      "alpha" : 1,
      "bottom" : "LE_block_11_add_output,LE_block_12_project_BN_output",
      "operation" : 0,
      "weights" : {

      },
      "fused_relu" : 0,
      "top" : "LE_block_12_add_output",
      "type" : "elementwise",
      "name" : "LE_block_12_add",
      "beta" : 0
    },
    {
      "pad_r" : 0,
      "fused_relu" : 0,
      "fused_tanh" : 0,
      "pad_fill_mode" : 0,
      "pad_b" : 0,
      "pad_l" : 0,
      "top" : "Cont_block_13_expand_BN_output",
      "blob_weights" : 643,
      "K" : 12,
      "blob_biases" : 641,
      "name" : "Cont_block_13_expand",
      "has_batch_norm" : 0,
      "type" : "convolution",
      "n_groups" : 1,
      "pad_t" : 0,
      "has_biases" : 1,
      "C" : 72,
      "bottom" : "Cont_block_12_add_output",
      "weights" : {

      },
      "pad_mode" : 1,
      "Nx" : 1,
      "pad_value" : 0,
      "Ny" : 1,
      "n_parallel" : 1
    },
    {
      "pad_r" : 0,
      "fused_relu" : 0,
      "fused_tanh" : 0,
      "pad_fill_mode" : 0,
      "pad_b" : 0,
      "pad_l" : 0,
      "top" : "Lips_block_13_expand_BN_output",
      "blob_weights" : 647,
      "K" : 12,
      "blob_biases" : 645,
      "name" : "Lips_block_13_expand",
      "has_batch_norm" : 0,
      "type" : "convolution",
      "n_groups" : 1,
      "pad_t" : 0,
      "has_biases" : 1,
      "C" : 72,
      "bottom" : "Lips_block_12_add_output",
      "weights" : {

      },
      "pad_mode" : 1,
      "Nx" : 1,
      "pad_value" : 0,
      "Ny" : 1,
      "n_parallel" : 1
    },
    {
      "pad_r" : 0,
      "fused_relu" : 0,
      "fused_tanh" : 0,
      "pad_fill_mode" : 0,
      "pad_b" : 0,
      "pad_l" : 0,
      "top" : "RE_block_13_expand_BN_output",
      "blob_weights" : 651,
      "K" : 12,
      "blob_biases" : 649,
      "name" : "RE_block_13_expand",
      "has_batch_norm" : 0,
      "type" : "convolution",
      "n_groups" : 1,
      "pad_t" : 0,
      "has_biases" : 1,
      "C" : 72,
      "bottom" : "RE_block_12_add_output",
      "weights" : {

      },
      "pad_mode" : 1,
      "Nx" : 1,
      "pad_value" : 0,
      "Ny" : 1,
      "n_parallel" : 1
    },
    {
      "pad_r" : 0,
      "fused_relu" : 0,
      "fused_tanh" : 0,
      "pad_fill_mode" : 0,
      "pad_b" : 0,
      "pad_l" : 0,
      "top" : "LE_block_13_expand_BN_output",
      "blob_weights" : 655,
      "K" : 12,
      "blob_biases" : 653,
      "name" : "LE_block_13_expand",
      "has_batch_norm" : 0,
      "type" : "convolution",
      "n_groups" : 1,
      "pad_t" : 0,
      "has_biases" : 1,
      "C" : 72,
      "bottom" : "LE_block_12_add_output",
      "weights" : {

      },
      "pad_mode" : 1,
      "Nx" : 1,
      "pad_value" : 0,
      "Ny" : 1,
      "n_parallel" : 1
    },
    {
      "mode" : 4,
      "weights" : {
        "params_prelu" : 657
      },
      "top" : "Cont_block_13_expand_relu_output",
      "type" : "activation",
      "name" : "Cont_block_13_expand_relu",
      "bottom" : "Cont_block_13_expand_BN_output"
    },
    {
      "mode" : 4,
      "weights" : {
        "params_prelu" : 659
      },
      "top" : "Lips_block_13_expand_relu_output",
      "type" : "activation",
      "name" : "Lips_block_13_expand_relu",
      "bottom" : "Lips_block_13_expand_BN_output"
    },
    {
      "mode" : 4,
      "weights" : {
        "params_prelu" : 661
      },
      "top" : "RE_block_13_expand_relu_output",
      "type" : "activation",
      "name" : "RE_block_13_expand_relu",
      "bottom" : "RE_block_13_expand_BN_output"
    },
    {
      "mode" : 4,
      "weights" : {
        "params_prelu" : 663
      },
      "top" : "LE_block_13_expand_relu_output",
      "type" : "activation",
      "name" : "LE_block_13_expand_relu",
      "bottom" : "LE_block_13_expand_BN_output"
    },
    {
      "pad_r" : 1,
      "fused_relu" : 0,
      "fused_tanh" : 0,
      "pad_fill_mode" : 0,
      "pad_b" : 1,
      "pad_l" : 0,
      "top" : "Cont_block_13_depthwise_BN_output",
      "blob_weights" : 667,
      "K" : 72,
      "blob_biases" : 665,
      "stride_x" : 2,
      "name" : "Cont_block_13_depthwise",
      "has_batch_norm" : 0,
      "type" : "convolution",
      "n_groups" : 72,
      "pad_t" : 0,
      "stride_y" : 2,
      "has_biases" : 1,
      "C" : 72,
      "bottom" : "Cont_block_13_expand_relu_output",
      "weights" : {

      },
      "Nx" : 3,
      "pad_mode" : 0,
      "pad_value" : 0,
      "Ny" : 3,
      "n_parallel" : 1
    },
    {
      "pad_r" : 1,
      "fused_relu" : 0,
      "fused_tanh" : 0,
      "pad_fill_mode" : 0,
      "pad_b" : 1,
      "pad_l" : 0,
      "top" : "Lips_block_13_depthwise_BN_output",
      "blob_weights" : 671,
      "K" : 72,
      "blob_biases" : 669,
      "stride_x" : 2,
      "name" : "Lips_block_13_depthwise",
      "has_batch_norm" : 0,
      "type" : "convolution",
      "n_groups" : 72,
      "pad_t" : 0,
      "stride_y" : 2,
      "has_biases" : 1,
      "C" : 72,
      "bottom" : "Lips_block_13_expand_relu_output",
      "weights" : {

      },
      "Nx" : 3,
      "pad_mode" : 0,
      "pad_value" : 0,
      "Ny" : 3,
      "n_parallel" : 1
    },
    {
      "pad_r" : 1,
      "fused_relu" : 0,
      "fused_tanh" : 0,
      "pad_fill_mode" : 0,
      "pad_b" : 1,
      "pad_l" : 0,
      "top" : "RE_block_13_depthwise_BN_output",
      "blob_weights" : 675,
      "K" : 72,
      "blob_biases" : 673,
      "stride_x" : 2,
      "name" : "RE_block_13_depthwise",
      "has_batch_norm" : 0,
      "type" : "convolution",
      "n_groups" : 72,
      "pad_t" : 0,
      "stride_y" : 2,
      "has_biases" : 1,
      "C" : 72,
      "bottom" : "RE_block_13_expand_relu_output",
      "weights" : {

      },
      "Nx" : 3,
      "pad_mode" : 0,
      "pad_value" : 0,
      "Ny" : 3,
      "n_parallel" : 1
    },
    {
      "pad_r" : 1,
      "fused_relu" : 0,
      "fused_tanh" : 0,
      "pad_fill_mode" : 0,
      "pad_b" : 1,
      "pad_l" : 0,
      "top" : "LE_block_13_depthwise_BN_output",
      "blob_weights" : 679,
      "K" : 72,
      "blob_biases" : 677,
      "stride_x" : 2,
      "name" : "LE_block_13_depthwise",
      "has_batch_norm" : 0,
      "type" : "convolution",
      "n_groups" : 72,
      "pad_t" : 0,
      "stride_y" : 2,
      "has_biases" : 1,
      "C" : 72,
      "bottom" : "LE_block_13_expand_relu_output",
      "weights" : {

      },
      "Nx" : 3,
      "pad_mode" : 0,
      "pad_value" : 0,
      "Ny" : 3,
      "n_parallel" : 1
    },
    {
      "mode" : 4,
      "weights" : {
        "params_prelu" : 681
      },
      "top" : "Cont_block_13_depthwise_relu_output",
      "type" : "activation",
      "name" : "Cont_block_13_depthwise_relu",
      "bottom" : "Cont_block_13_depthwise_BN_output"
    },
    {
      "mode" : 4,
      "weights" : {
        "params_prelu" : 683
      },
      "top" : "Lips_block_13_depthwise_relu_output",
      "type" : "activation",
      "name" : "Lips_block_13_depthwise_relu",
      "bottom" : "Lips_block_13_depthwise_BN_output"
    },
    {
      "mode" : 4,
      "weights" : {
        "params_prelu" : 685
      },
      "top" : "RE_block_13_depthwise_relu_output",
      "type" : "activation",
      "name" : "RE_block_13_depthwise_relu",
      "bottom" : "RE_block_13_depthwise_BN_output"
    },
    {
      "mode" : 4,
      "weights" : {
        "params_prelu" : 687
      },
      "top" : "LE_block_13_depthwise_relu_output",
      "type" : "activation",
      "name" : "LE_block_13_depthwise_relu",
      "bottom" : "LE_block_13_depthwise_BN_output"
    },
    {
      "pad_r" : 0,
      "fused_relu" : 0,
      "fused_tanh" : 0,
      "pad_fill_mode" : 0,
      "pad_b" : 0,
      "pad_l" : 0,
      "top" : "Cont_block_13_project_BN_output",
      "blob_weights" : 691,
      "K" : 72,
      "blob_biases" : 689,
      "name" : "Cont_block_13_project",
      "has_batch_norm" : 0,
      "type" : "convolution",
      "n_groups" : 1,
      "pad_t" : 0,
      "has_biases" : 1,
      "C" : 12,
      "bottom" : "Cont_block_13_depthwise_relu_output",
      "weights" : {

      },
      "pad_mode" : 1,
      "Nx" : 1,
      "pad_value" : 0,
      "Ny" : 1,
      "n_parallel" : 1
    },
    {
      "pad_r" : 0,
      "fused_relu" : 0,
      "fused_tanh" : 0,
      "pad_fill_mode" : 0,
      "pad_b" : 0,
      "pad_l" : 0,
      "top" : "Lips_block_13_project_BN_output",
      "blob_weights" : 695,
      "K" : 72,
      "blob_biases" : 693,
      "name" : "Lips_block_13_project",
      "has_batch_norm" : 0,
      "type" : "convolution",
      "n_groups" : 1,
      "pad_t" : 0,
      "has_biases" : 1,
      "C" : 12,
      "bottom" : "Lips_block_13_depthwise_relu_output",
      "weights" : {

      },
      "pad_mode" : 1,
      "Nx" : 1,
      "pad_value" : 0,
      "Ny" : 1,
      "n_parallel" : 1
    },
    {
      "pad_r" : 0,
      "fused_relu" : 0,
      "fused_tanh" : 0,
      "pad_fill_mode" : 0,
      "pad_b" : 0,
      "pad_l" : 0,
      "top" : "RE_block_13_project_BN_output",
      "blob_weights" : 699,
      "K" : 72,
      "blob_biases" : 697,
      "name" : "RE_block_13_project",
      "has_batch_norm" : 0,
      "type" : "convolution",
      "n_groups" : 1,
      "pad_t" : 0,
      "has_biases" : 1,
      "C" : 12,
      "bottom" : "RE_block_13_depthwise_relu_output",
      "weights" : {

      },
      "pad_mode" : 1,
      "Nx" : 1,
      "pad_value" : 0,
      "Ny" : 1,
      "n_parallel" : 1
    },
    {
      "pad_r" : 0,
      "fused_relu" : 0,
      "fused_tanh" : 0,
      "pad_fill_mode" : 0,
      "pad_b" : 0,
      "pad_l" : 0,
      "top" : "LE_block_13_project_BN_output",
      "blob_weights" : 703,
      "K" : 72,
      "blob_biases" : 701,
      "name" : "LE_block_13_project",
      "has_batch_norm" : 0,
      "type" : "convolution",
      "n_groups" : 1,
      "pad_t" : 0,
      "has_biases" : 1,
      "C" : 12,
      "bottom" : "LE_block_13_depthwise_relu_output",
      "weights" : {

      },
      "pad_mode" : 1,
      "Nx" : 1,
      "pad_value" : 0,
      "Ny" : 1,
      "n_parallel" : 1
    },
    {
      "pad_r" : 0,
      "fused_relu" : 0,
      "fused_tanh" : 0,
      "pad_fill_mode" : 0,
      "pad_b" : 0,
      "pad_l" : 0,
      "top" : "Cont_block_14_expand_BN_output",
      "blob_weights" : 707,
      "K" : 12,
      "blob_biases" : 705,
      "name" : "Cont_block_14_expand",
      "has_batch_norm" : 0,
      "type" : "convolution",
      "n_groups" : 1,
      "pad_t" : 0,
      "has_biases" : 1,
      "C" : 72,
      "bottom" : "Cont_block_13_project_BN_output",
      "weights" : {

      },
      "pad_mode" : 1,
      "Nx" : 1,
      "pad_value" : 0,
      "Ny" : 1,
      "n_parallel" : 1
    },
    {
      "pad_r" : 0,
      "fused_relu" : 0,
      "fused_tanh" : 0,
      "pad_fill_mode" : 0,
      "pad_b" : 0,
      "pad_l" : 0,
      "top" : "Lips_block_14_expand_BN_output",
      "blob_weights" : 711,
      "K" : 12,
      "blob_biases" : 709,
      "name" : "Lips_block_14_expand",
      "has_batch_norm" : 0,
      "type" : "convolution",
      "n_groups" : 1,
      "pad_t" : 0,
      "has_biases" : 1,
      "C" : 72,
      "bottom" : "Lips_block_13_project_BN_output",
      "weights" : {

      },
      "pad_mode" : 1,
      "Nx" : 1,
      "pad_value" : 0,
      "Ny" : 1,
      "n_parallel" : 1
    },
    {
      "pad_r" : 0,
      "fused_relu" : 0,
      "fused_tanh" : 0,
      "pad_fill_mode" : 0,
      "pad_b" : 0,
      "pad_l" : 0,
      "top" : "RE_block_14_expand_BN_output",
      "blob_weights" : 715,
      "K" : 12,
      "blob_biases" : 713,
      "name" : "RE_block_14_expand",
      "has_batch_norm" : 0,
      "type" : "convolution",
      "n_groups" : 1,
      "pad_t" : 0,
      "has_biases" : 1,
      "C" : 72,
      "bottom" : "RE_block_13_project_BN_output",
      "weights" : {

      },
      "pad_mode" : 1,
      "Nx" : 1,
      "pad_value" : 0,
      "Ny" : 1,
      "n_parallel" : 1
    },
    {
      "pad_r" : 0,
      "fused_relu" : 0,
      "fused_tanh" : 0,
      "pad_fill_mode" : 0,
      "pad_b" : 0,
      "pad_l" : 0,
      "top" : "LE_block_14_expand_BN_output",
      "blob_weights" : 719,
      "K" : 12,
      "blob_biases" : 717,
      "name" : "LE_block_14_expand",
      "has_batch_norm" : 0,
      "type" : "convolution",
      "n_groups" : 1,
      "pad_t" : 0,
      "has_biases" : 1,
      "C" : 72,
      "bottom" : "LE_block_13_project_BN_output",
      "weights" : {

      },
      "pad_mode" : 1,
      "Nx" : 1,
      "pad_value" : 0,
      "Ny" : 1,
      "n_parallel" : 1
    },
    {
      "mode" : 4,
      "weights" : {
        "params_prelu" : 721
      },
      "top" : "Cont_block_14_expand_relu_output",
      "type" : "activation",
      "name" : "Cont_block_14_expand_relu",
      "bottom" : "Cont_block_14_expand_BN_output"
    },
    {
      "mode" : 4,
      "weights" : {
        "params_prelu" : 723
      },
      "top" : "Lips_block_14_expand_relu_output",
      "type" : "activation",
      "name" : "Lips_block_14_expand_relu",
      "bottom" : "Lips_block_14_expand_BN_output"
    },
    {
      "mode" : 4,
      "weights" : {
        "params_prelu" : 725
      },
      "top" : "RE_block_14_expand_relu_output",
      "type" : "activation",
      "name" : "RE_block_14_expand_relu",
      "bottom" : "RE_block_14_expand_BN_output"
    },
    {
      "mode" : 4,
      "weights" : {
        "params_prelu" : 727
      },
      "top" : "LE_block_14_expand_relu_output",
      "type" : "activation",
      "name" : "LE_block_14_expand_relu",
      "bottom" : "LE_block_14_expand_BN_output"
    },
    {
      "pad_r" : 0,
      "fused_relu" : 0,
      "fused_tanh" : 0,
      "pad_fill_mode" : 0,
      "pad_b" : 0,
      "pad_l" : 0,
      "top" : "Cont_block_14_depthwise_BN_output",
      "blob_weights" : 731,
      "K" : 72,
      "blob_biases" : 729,
      "name" : "Cont_block_14_depthwise",
      "has_batch_norm" : 0,
      "type" : "convolution",
      "n_groups" : 72,
      "pad_t" : 0,
      "has_biases" : 1,
      "C" : 72,
      "bottom" : "Cont_block_14_expand_relu_output",
      "weights" : {

      },
      "pad_mode" : 1,
      "Nx" : 3,
      "pad_value" : 0,
      "Ny" : 3,
      "n_parallel" : 1
    },
    {
      "pad_r" : 0,
      "fused_relu" : 0,
      "fused_tanh" : 0,
      "pad_fill_mode" : 0,
      "pad_b" : 0,
      "pad_l" : 0,
      "top" : "Lips_block_14_depthwise_BN_output",
      "blob_weights" : 735,
      "K" : 72,
      "blob_biases" : 733,
      "name" : "Lips_block_14_depthwise",
      "has_batch_norm" : 0,
      "type" : "convolution",
      "n_groups" : 72,
      "pad_t" : 0,
      "has_biases" : 1,
      "C" : 72,
      "bottom" : "Lips_block_14_expand_relu_output",
      "weights" : {

      },
      "pad_mode" : 1,
      "Nx" : 3,
      "pad_value" : 0,
      "Ny" : 3,
      "n_parallel" : 1
    },
    {
      "pad_r" : 0,
      "fused_relu" : 0,
      "fused_tanh" : 0,
      "pad_fill_mode" : 0,
      "pad_b" : 0,
      "pad_l" : 0,
      "top" : "RE_block_14_depthwise_BN_output",
      "blob_weights" : 739,
      "K" : 72,
      "blob_biases" : 737,
      "name" : "RE_block_14_depthwise",
      "has_batch_norm" : 0,
      "type" : "convolution",
      "n_groups" : 72,
      "pad_t" : 0,
      "has_biases" : 1,
      "C" : 72,
      "bottom" : "RE_block_14_expand_relu_output",
      "weights" : {

      },
      "pad_mode" : 1,
      "Nx" : 3,
      "pad_value" : 0,
      "Ny" : 3,
      "n_parallel" : 1
    },
    {
      "pad_r" : 0,
      "fused_relu" : 0,
      "fused_tanh" : 0,
      "pad_fill_mode" : 0,
      "pad_b" : 0,
      "pad_l" : 0,
      "top" : "LE_block_14_depthwise_BN_output",
      "blob_weights" : 743,
      "K" : 72,
      "blob_biases" : 741,
      "name" : "LE_block_14_depthwise",
      "has_batch_norm" : 0,
      "type" : "convolution",
      "n_groups" : 72,
      "pad_t" : 0,
      "has_biases" : 1,
      "C" : 72,
      "bottom" : "LE_block_14_expand_relu_output",
      "weights" : {

      },
      "pad_mode" : 1,
      "Nx" : 3,
      "pad_value" : 0,
      "Ny" : 3,
      "n_parallel" : 1
    },
    {
      "mode" : 4,
      "weights" : {
        "params_prelu" : 745
      },
      "top" : "Cont_block_14_depthwise_relu_output",
      "type" : "activation",
      "name" : "Cont_block_14_depthwise_relu",
      "bottom" : "Cont_block_14_depthwise_BN_output"
    },
    {
      "mode" : 4,
      "weights" : {
        "params_prelu" : 747
      },
      "top" : "Lips_block_14_depthwise_relu_output",
      "type" : "activation",
      "name" : "Lips_block_14_depthwise_relu",
      "bottom" : "Lips_block_14_depthwise_BN_output"
    },
    {
      "mode" : 4,
      "weights" : {
        "params_prelu" : 749
      },
      "top" : "RE_block_14_depthwise_relu_output",
      "type" : "activation",
      "name" : "RE_block_14_depthwise_relu",
      "bottom" : "RE_block_14_depthwise_BN_output"
    },
    {
      "mode" : 4,
      "weights" : {
        "params_prelu" : 751
      },
      "top" : "LE_block_14_depthwise_relu_output",
      "type" : "activation",
      "name" : "LE_block_14_depthwise_relu",
      "bottom" : "LE_block_14_depthwise_BN_output"
    },
    {
      "pad_r" : 0,
      "fused_relu" : 0,
      "fused_tanh" : 0,
      "pad_fill_mode" : 0,
      "pad_b" : 0,
      "pad_l" : 0,
      "top" : "Cont_block_14_project_BN_output",
      "blob_weights" : 755,
      "K" : 72,
      "blob_biases" : 753,
      "name" : "Cont_block_14_project",
      "has_batch_norm" : 0,
      "type" : "convolution",
      "n_groups" : 1,
      "pad_t" : 0,
      "has_biases" : 1,
      "C" : 12,
      "bottom" : "Cont_block_14_depthwise_relu_output",
      "weights" : {

      },
      "pad_mode" : 1,
      "Nx" : 1,
      "pad_value" : 0,
      "Ny" : 1,
      "n_parallel" : 1
    },
    {
      "pad_r" : 0,
      "fused_relu" : 0,
      "fused_tanh" : 0,
      "pad_fill_mode" : 0,
      "pad_b" : 0,
      "pad_l" : 0,
      "top" : "Lips_block_14_project_BN_output",
      "blob_weights" : 759,
      "K" : 72,
      "blob_biases" : 757,
      "name" : "Lips_block_14_project",
      "has_batch_norm" : 0,
      "type" : "convolution",
      "n_groups" : 1,
      "pad_t" : 0,
      "has_biases" : 1,
      "C" : 12,
      "bottom" : "Lips_block_14_depthwise_relu_output",
      "weights" : {

      },
      "pad_mode" : 1,
      "Nx" : 1,
      "pad_value" : 0,
      "Ny" : 1,
      "n_parallel" : 1
    },
    {
      "pad_r" : 0,
      "fused_relu" : 0,
      "fused_tanh" : 0,
      "pad_fill_mode" : 0,
      "pad_b" : 0,
      "pad_l" : 0,
      "top" : "RE_block_14_project_BN_output",
      "blob_weights" : 763,
      "K" : 72,
      "blob_biases" : 761,
      "name" : "RE_block_14_project",
      "has_batch_norm" : 0,
      "type" : "convolution",
      "n_groups" : 1,
      "pad_t" : 0,
      "has_biases" : 1,
      "C" : 12,
      "bottom" : "RE_block_14_depthwise_relu_output",
      "weights" : {

      },
      "pad_mode" : 1,
      "Nx" : 1,
      "pad_value" : 0,
      "Ny" : 1,
      "n_parallel" : 1
    },
    {
      "pad_r" : 0,
      "fused_relu" : 0,
      "fused_tanh" : 0,
      "pad_fill_mode" : 0,
      "pad_b" : 0,
      "pad_l" : 0,
      "top" : "LE_block_14_project_BN_output",
      "blob_weights" : 767,
      "K" : 72,
      "blob_biases" : 765,
      "name" : "LE_block_14_project",
      "has_batch_norm" : 0,
      "type" : "convolution",
      "n_groups" : 1,
      "pad_t" : 0,
      "has_biases" : 1,
      "C" : 12,
      "bottom" : "LE_block_14_depthwise_relu_output",
      "weights" : {

      },
      "pad_mode" : 1,
      "Nx" : 1,
      "pad_value" : 0,
      "Ny" : 1,
      "n_parallel" : 1
    },
    {
      "alpha" : 1,
      "bottom" : "Cont_block_13_project_BN_output,Cont_block_14_project_BN_output",
      "operation" : 0,
      "weights" : {

      },
      "fused_relu" : 0,
      "top" : "Cont_block_14_add_output",
      "type" : "elementwise",
      "name" : "Cont_block_14_add",
      "beta" : 0
    },
    {
      "alpha" : 1,
      "bottom" : "Lips_block_13_project_BN_output,Lips_block_14_project_BN_output",
      "operation" : 0,
      "weights" : {

      },
      "fused_relu" : 0,
      "top" : "Lips_block_14_add_output",
      "type" : "elementwise",
      "name" : "Lips_block_14_add",
      "beta" : 0
    },
    {
      "alpha" : 1,
      "bottom" : "RE_block_13_project_BN_output,RE_block_14_project_BN_output",
      "operation" : 0,
      "weights" : {

      },
      "fused_relu" : 0,
      "top" : "RE_block_14_add_output",
      "type" : "elementwise",
      "name" : "RE_block_14_add",
      "beta" : 0
    },
    {
      "alpha" : 1,
      "bottom" : "LE_block_13_project_BN_output,LE_block_14_project_BN_output",
      "operation" : 0,
      "weights" : {

      },
      "fused_relu" : 0,
      "top" : "LE_block_14_add_output",
      "type" : "elementwise",
      "name" : "LE_block_14_add",
      "beta" : 0
    },
    {
      "pad_r" : 0,
      "fused_relu" : 0,
      "fused_tanh" : 0,
      "pad_fill_mode" : 0,
      "pad_b" : 0,
      "pad_l" : 0,
      "top" : "Cont_block_15_expand_BN_output",
      "blob_weights" : 771,
      "K" : 12,
      "blob_biases" : 769,
      "name" : "Cont_block_15_expand",
      "has_batch_norm" : 0,
      "type" : "convolution",
      "n_groups" : 1,
      "pad_t" : 0,
      "has_biases" : 1,
      "C" : 72,
      "bottom" : "Cont_block_14_add_output",
      "weights" : {

      },
      "pad_mode" : 1,
      "Nx" : 1,
      "pad_value" : 0,
      "Ny" : 1,
      "n_parallel" : 1
    },
    {
      "pad_r" : 0,
      "fused_relu" : 0,
      "fused_tanh" : 0,
      "pad_fill_mode" : 0,
      "pad_b" : 0,
      "pad_l" : 0,
      "top" : "Lips_block_15_expand_BN_output",
      "blob_weights" : 775,
      "K" : 12,
      "blob_biases" : 773,
      "name" : "Lips_block_15_expand",
      "has_batch_norm" : 0,
      "type" : "convolution",
      "n_groups" : 1,
      "pad_t" : 0,
      "has_biases" : 1,
      "C" : 72,
      "bottom" : "Lips_block_14_add_output",
      "weights" : {

      },
      "pad_mode" : 1,
      "Nx" : 1,
      "pad_value" : 0,
      "Ny" : 1,
      "n_parallel" : 1
    },
    {
      "pad_r" : 0,
      "fused_relu" : 0,
      "fused_tanh" : 0,
      "pad_fill_mode" : 0,
      "pad_b" : 0,
      "pad_l" : 0,
      "top" : "RE_block_15_expand_BN_output",
      "blob_weights" : 779,
      "K" : 12,
      "blob_biases" : 777,
      "name" : "RE_block_15_expand",
      "has_batch_norm" : 0,
      "type" : "convolution",
      "n_groups" : 1,
      "pad_t" : 0,
      "has_biases" : 1,
      "C" : 72,
      "bottom" : "RE_block_14_add_output",
      "weights" : {

      },
      "pad_mode" : 1,
      "Nx" : 1,
      "pad_value" : 0,
      "Ny" : 1,
      "n_parallel" : 1
    },
    {
      "pad_r" : 0,
      "fused_relu" : 0,
      "fused_tanh" : 0,
      "pad_fill_mode" : 0,
      "pad_b" : 0,
      "pad_l" : 0,
      "top" : "LE_block_15_expand_BN_output",
      "blob_weights" : 783,
      "K" : 12,
      "blob_biases" : 781,
      "name" : "LE_block_15_expand",
      "has_batch_norm" : 0,
      "type" : "convolution",
      "n_groups" : 1,
      "pad_t" : 0,
      "has_biases" : 1,
      "C" : 72,
      "bottom" : "LE_block_14_add_output",
      "weights" : {

      },
      "pad_mode" : 1,
      "Nx" : 1,
      "pad_value" : 0,
      "Ny" : 1,
      "n_parallel" : 1
    },
    {
      "mode" : 4,
      "weights" : {
        "params_prelu" : 785
      },
      "top" : "Cont_block_15_expand_relu_output",
      "type" : "activation",
      "name" : "Cont_block_15_expand_relu",
      "bottom" : "Cont_block_15_expand_BN_output"
    },
    {
      "mode" : 4,
      "weights" : {
        "params_prelu" : 787
      },
      "top" : "Lips_block_15_expand_relu_output",
      "type" : "activation",
      "name" : "Lips_block_15_expand_relu",
      "bottom" : "Lips_block_15_expand_BN_output"
    },
    {
      "mode" : 4,
      "weights" : {
        "params_prelu" : 789
      },
      "top" : "RE_block_15_expand_relu_output",
      "type" : "activation",
      "name" : "RE_block_15_expand_relu",
      "bottom" : "RE_block_15_expand_BN_output"
    },
    {
      "mode" : 4,
      "weights" : {
        "params_prelu" : 791
      },
      "top" : "LE_block_15_expand_relu_output",
      "type" : "activation",
      "name" : "LE_block_15_expand_relu",
      "bottom" : "LE_block_15_expand_BN_output"
    },
    {
      "pad_r" : 0,
      "fused_relu" : 0,
      "fused_tanh" : 0,
      "pad_fill_mode" : 0,
      "pad_b" : 0,
      "pad_l" : 0,
      "top" : "Cont_block_15_depthwise_BN_output",
      "blob_weights" : 795,
      "K" : 72,
      "blob_biases" : 793,
      "name" : "Cont_block_15_depthwise",
      "has_batch_norm" : 0,
      "type" : "convolution",
      "n_groups" : 72,
      "pad_t" : 0,
      "has_biases" : 1,
      "C" : 72,
      "bottom" : "Cont_block_15_expand_relu_output",
      "weights" : {

      },
      "pad_mode" : 1,
      "Nx" : 3,
      "pad_value" : 0,
      "Ny" : 3,
      "n_parallel" : 1
    },
    {
      "pad_r" : 0,
      "fused_relu" : 0,
      "fused_tanh" : 0,
      "pad_fill_mode" : 0,
      "pad_b" : 0,
      "pad_l" : 0,
      "top" : "Lips_block_15_depthwise_BN_output",
      "blob_weights" : 799,
      "K" : 72,
      "blob_biases" : 797,
      "name" : "Lips_block_15_depthwise",
      "has_batch_norm" : 0,
      "type" : "convolution",
      "n_groups" : 72,
      "pad_t" : 0,
      "has_biases" : 1,
      "C" : 72,
      "bottom" : "Lips_block_15_expand_relu_output",
      "weights" : {

      },
      "pad_mode" : 1,
      "Nx" : 3,
      "pad_value" : 0,
      "Ny" : 3,
      "n_parallel" : 1
    },
    {
      "pad_r" : 0,
      "fused_relu" : 0,
      "fused_tanh" : 0,
      "pad_fill_mode" : 0,
      "pad_b" : 0,
      "pad_l" : 0,
      "top" : "RE_block_15_depthwise_BN_output",
      "blob_weights" : 803,
      "K" : 72,
      "blob_biases" : 801,
      "name" : "RE_block_15_depthwise",
      "has_batch_norm" : 0,
      "type" : "convolution",
      "n_groups" : 72,
      "pad_t" : 0,
      "has_biases" : 1,
      "C" : 72,
      "bottom" : "RE_block_15_expand_relu_output",
      "weights" : {

      },
      "pad_mode" : 1,
      "Nx" : 3,
      "pad_value" : 0,
      "Ny" : 3,
      "n_parallel" : 1
    },
    {
      "pad_r" : 0,
      "fused_relu" : 0,
      "fused_tanh" : 0,
      "pad_fill_mode" : 0,
      "pad_b" : 0,
      "pad_l" : 0,
      "top" : "LE_block_15_depthwise_BN_output",
      "blob_weights" : 807,
      "K" : 72,
      "blob_biases" : 805,
      "name" : "LE_block_15_depthwise",
      "has_batch_norm" : 0,
      "type" : "convolution",
      "n_groups" : 72,
      "pad_t" : 0,
      "has_biases" : 1,
      "C" : 72,
      "bottom" : "LE_block_15_expand_relu_output",
      "weights" : {

      },
      "pad_mode" : 1,
      "Nx" : 3,
      "pad_value" : 0,
      "Ny" : 3,
      "n_parallel" : 1
    },
    {
      "mode" : 4,
      "weights" : {
        "params_prelu" : 809
      },
      "top" : "Cont_block_15_depthwise_relu_output",
      "type" : "activation",
      "name" : "Cont_block_15_depthwise_relu",
      "bottom" : "Cont_block_15_depthwise_BN_output"
    },
    {
      "mode" : 4,
      "weights" : {
        "params_prelu" : 811
      },
      "top" : "Lips_block_15_depthwise_relu_output",
      "type" : "activation",
      "name" : "Lips_block_15_depthwise_relu",
      "bottom" : "Lips_block_15_depthwise_BN_output"
    },
    {
      "mode" : 4,
      "weights" : {
        "params_prelu" : 813
      },
      "top" : "RE_block_15_depthwise_relu_output",
      "type" : "activation",
      "name" : "RE_block_15_depthwise_relu",
      "bottom" : "RE_block_15_depthwise_BN_output"
    },
    {
      "mode" : 4,
      "weights" : {
        "params_prelu" : 815
      },
      "top" : "LE_block_15_depthwise_relu_output",
      "type" : "activation",
      "name" : "LE_block_15_depthwise_relu",
      "bottom" : "LE_block_15_depthwise_BN_output"
    },
    {
      "pad_r" : 0,
      "fused_relu" : 0,
      "fused_tanh" : 0,
      "pad_fill_mode" : 0,
      "pad_b" : 0,
      "pad_l" : 0,
      "top" : "Cont_block_15_project_BN_output",
      "blob_weights" : 819,
      "K" : 72,
      "blob_biases" : 817,
      "name" : "Cont_block_15_project",
      "has_batch_norm" : 0,
      "type" : "convolution",
      "n_groups" : 1,
      "pad_t" : 0,
      "has_biases" : 1,
      "C" : 12,
      "bottom" : "Cont_block_15_depthwise_relu_output",
      "weights" : {

      },
      "pad_mode" : 1,
      "Nx" : 1,
      "pad_value" : 0,
      "Ny" : 1,
      "n_parallel" : 1
    },
    {
      "pad_r" : 0,
      "fused_relu" : 0,
      "fused_tanh" : 0,
      "pad_fill_mode" : 0,
      "pad_b" : 0,
      "pad_l" : 0,
      "top" : "Lips_block_15_project_BN_output",
      "blob_weights" : 823,
      "K" : 72,
      "blob_biases" : 821,
      "name" : "Lips_block_15_project",
      "has_batch_norm" : 0,
      "type" : "convolution",
      "n_groups" : 1,
      "pad_t" : 0,
      "has_biases" : 1,
      "C" : 12,
      "bottom" : "Lips_block_15_depthwise_relu_output",
      "weights" : {

      },
      "pad_mode" : 1,
      "Nx" : 1,
      "pad_value" : 0,
      "Ny" : 1,
      "n_parallel" : 1
    },
    {
      "pad_r" : 0,
      "fused_relu" : 0,
      "fused_tanh" : 0,
      "pad_fill_mode" : 0,
      "pad_b" : 0,
      "pad_l" : 0,
      "top" : "RE_block_15_project_BN_output",
      "blob_weights" : 827,
      "K" : 72,
      "blob_biases" : 825,
      "name" : "RE_block_15_project",
      "has_batch_norm" : 0,
      "type" : "convolution",
      "n_groups" : 1,
      "pad_t" : 0,
      "has_biases" : 1,
      "C" : 12,
      "bottom" : "RE_block_15_depthwise_relu_output",
      "weights" : {

      },
      "pad_mode" : 1,
      "Nx" : 1,
      "pad_value" : 0,
      "Ny" : 1,
      "n_parallel" : 1
    },
    {
      "pad_r" : 0,
      "fused_relu" : 0,
      "fused_tanh" : 0,
      "pad_fill_mode" : 0,
      "pad_b" : 0,
      "pad_l" : 0,
      "top" : "LE_block_15_project_BN_output",
      "blob_weights" : 831,
      "K" : 72,
      "blob_biases" : 829,
      "name" : "LE_block_15_project",
      "has_batch_norm" : 0,
      "type" : "convolution",
      "n_groups" : 1,
      "pad_t" : 0,
      "has_biases" : 1,
      "C" : 12,
      "bottom" : "LE_block_15_depthwise_relu_output",
      "weights" : {

      },
      "pad_mode" : 1,
      "Nx" : 1,
      "pad_value" : 0,
      "Ny" : 1,
      "n_parallel" : 1
    },
    {
      "alpha" : 1,
      "bottom" : "Cont_block_14_add_output,Cont_block_15_project_BN_output",
      "operation" : 0,
      "weights" : {

      },
      "fused_relu" : 0,
      "top" : "Cont_block_15_add_output",
      "type" : "elementwise",
      "name" : "Cont_block_15_add",
      "beta" : 0
    },
    {
      "alpha" : 1,
      "bottom" : "Lips_block_14_add_output,Lips_block_15_project_BN_output",
      "operation" : 0,
      "weights" : {

      },
      "fused_relu" : 0,
      "top" : "Lips_block_15_add_output",
      "type" : "elementwise",
      "name" : "Lips_block_15_add",
      "beta" : 0
    },
    {
      "alpha" : 1,
      "bottom" : "RE_block_14_add_output,RE_block_15_project_BN_output",
      "operation" : 0,
      "weights" : {

      },
      "fused_relu" : 0,
      "top" : "RE_block_15_add_output",
      "type" : "elementwise",
      "name" : "RE_block_15_add",
      "beta" : 0
    },
    {
      "alpha" : 1,
      "bottom" : "LE_block_14_add_output,LE_block_15_project_BN_output",
      "operation" : 0,
      "weights" : {

      },
      "fused_relu" : 0,
      "top" : "LE_block_15_add_output",
      "type" : "elementwise",
      "name" : "LE_block_15_add",
      "beta" : 0
    },
    {
      "pad_r" : 0,
      "fused_relu" : 0,
      "fused_tanh" : 0,
      "pad_fill_mode" : 0,
      "pad_b" : 0,
      "pad_l" : 0,
      "top" : "Cont_block_16_expand_BN_output",
      "blob_weights" : 835,
      "K" : 12,
      "blob_biases" : 833,
      "name" : "Cont_block_16_expand",
      "has_batch_norm" : 0,
      "type" : "convolution",
      "n_groups" : 1,
      "pad_t" : 0,
      "has_biases" : 1,
      "C" : 72,
      "bottom" : "Cont_block_15_add_output",
      "weights" : {

      },
      "pad_mode" : 1,
      "Nx" : 1,
      "pad_value" : 0,
      "Ny" : 1,
      "n_parallel" : 1
    },
    {
      "pad_r" : 0,
      "fused_relu" : 0,
      "fused_tanh" : 0,
      "pad_fill_mode" : 0,
      "pad_b" : 0,
      "pad_l" : 0,
      "top" : "Lips_block_16_expand_BN_output",
      "blob_weights" : 839,
      "K" : 12,
      "blob_biases" : 837,
      "name" : "Lips_block_16_expand",
      "has_batch_norm" : 0,
      "type" : "convolution",
      "n_groups" : 1,
      "pad_t" : 0,
      "has_biases" : 1,
      "C" : 72,
      "bottom" : "Lips_block_15_add_output",
      "weights" : {

      },
      "pad_mode" : 1,
      "Nx" : 1,
      "pad_value" : 0,
      "Ny" : 1,
      "n_parallel" : 1
    },
    {
      "pad_r" : 0,
      "fused_relu" : 0,
      "fused_tanh" : 0,
      "pad_fill_mode" : 0,
      "pad_b" : 0,
      "pad_l" : 0,
      "top" : "RE_block_16_expand_BN_output",
      "blob_weights" : 843,
      "K" : 12,
      "blob_biases" : 841,
      "name" : "RE_block_16_expand",
      "has_batch_norm" : 0,
      "type" : "convolution",
      "n_groups" : 1,
      "pad_t" : 0,
      "has_biases" : 1,
      "C" : 72,
      "bottom" : "RE_block_15_add_output",
      "weights" : {

      },
      "pad_mode" : 1,
      "Nx" : 1,
      "pad_value" : 0,
      "Ny" : 1,
      "n_parallel" : 1
    },
    {
      "pad_r" : 0,
      "fused_relu" : 0,
      "fused_tanh" : 0,
      "pad_fill_mode" : 0,
      "pad_b" : 0,
      "pad_l" : 0,
      "top" : "LE_block_16_expand_BN_output",
      "blob_weights" : 847,
      "K" : 12,
      "blob_biases" : 845,
      "name" : "LE_block_16_expand",
      "has_batch_norm" : 0,
      "type" : "convolution",
      "n_groups" : 1,
      "pad_t" : 0,
      "has_biases" : 1,
      "C" : 72,
      "bottom" : "LE_block_15_add_output",
      "weights" : {

      },
      "pad_mode" : 1,
      "Nx" : 1,
      "pad_value" : 0,
      "Ny" : 1,
      "n_parallel" : 1
    },
    {
      "mode" : 4,
      "weights" : {
        "params_prelu" : 849
      },
      "top" : "Cont_block_16_expand_relu_output",
      "type" : "activation",
      "name" : "Cont_block_16_expand_relu",
      "bottom" : "Cont_block_16_expand_BN_output"
    },
    {
      "mode" : 4,
      "weights" : {
        "params_prelu" : 851
      },
      "top" : "Lips_block_16_expand_relu_output",
      "type" : "activation",
      "name" : "Lips_block_16_expand_relu",
      "bottom" : "Lips_block_16_expand_BN_output"
    },
    {
      "mode" : 4,
      "weights" : {
        "params_prelu" : 853
      },
      "top" : "RE_block_16_expand_relu_output",
      "type" : "activation",
      "name" : "RE_block_16_expand_relu",
      "bottom" : "RE_block_16_expand_BN_output"
    },
    {
      "mode" : 4,
      "weights" : {
        "params_prelu" : 855
      },
      "top" : "LE_block_16_expand_relu_output",
      "type" : "activation",
      "name" : "LE_block_16_expand_relu",
      "bottom" : "LE_block_16_expand_BN_output"
    },
    {
      "pad_r" : 0,
      "fused_relu" : 0,
      "fused_tanh" : 0,
      "pad_fill_mode" : 0,
      "pad_b" : 0,
      "pad_l" : 0,
      "top" : "Cont_block_16_depthwise_BN_output",
      "blob_weights" : 859,
      "K" : 72,
      "blob_biases" : 857,
      "name" : "Cont_block_16_depthwise",
      "has_batch_norm" : 0,
      "type" : "convolution",
      "n_groups" : 72,
      "pad_t" : 0,
      "has_biases" : 1,
      "C" : 72,
      "bottom" : "Cont_block_16_expand_relu_output",
      "weights" : {

      },
      "pad_mode" : 1,
      "Nx" : 3,
      "pad_value" : 0,
      "Ny" : 3,
      "n_parallel" : 1
    },
    {
      "pad_r" : 0,
      "fused_relu" : 0,
      "fused_tanh" : 0,
      "pad_fill_mode" : 0,
      "pad_b" : 0,
      "pad_l" : 0,
      "top" : "Lips_block_16_depthwise_BN_output",
      "blob_weights" : 863,
      "K" : 72,
      "blob_biases" : 861,
      "name" : "Lips_block_16_depthwise",
      "has_batch_norm" : 0,
      "type" : "convolution",
      "n_groups" : 72,
      "pad_t" : 0,
      "has_biases" : 1,
      "C" : 72,
      "bottom" : "Lips_block_16_expand_relu_output",
      "weights" : {

      },
      "pad_mode" : 1,
      "Nx" : 3,
      "pad_value" : 0,
      "Ny" : 3,
      "n_parallel" : 1
    },
    {
      "pad_r" : 0,
      "fused_relu" : 0,
      "fused_tanh" : 0,
      "pad_fill_mode" : 0,
      "pad_b" : 0,
      "pad_l" : 0,
      "top" : "RE_block_16_depthwise_BN_output",
      "blob_weights" : 867,
      "K" : 72,
      "blob_biases" : 865,
      "name" : "RE_block_16_depthwise",
      "has_batch_norm" : 0,
      "type" : "convolution",
      "n_groups" : 72,
      "pad_t" : 0,
      "has_biases" : 1,
      "C" : 72,
      "bottom" : "RE_block_16_expand_relu_output",
      "weights" : {

      },
      "pad_mode" : 1,
      "Nx" : 3,
      "pad_value" : 0,
      "Ny" : 3,
      "n_parallel" : 1
    },
    {
      "pad_r" : 0,
      "fused_relu" : 0,
      "fused_tanh" : 0,
      "pad_fill_mode" : 0,
      "pad_b" : 0,
      "pad_l" : 0,
      "top" : "LE_block_16_depthwise_BN_output",
      "blob_weights" : 871,
      "K" : 72,
      "blob_biases" : 869,
      "name" : "LE_block_16_depthwise",
      "has_batch_norm" : 0,
      "type" : "convolution",
      "n_groups" : 72,
      "pad_t" : 0,
      "has_biases" : 1,
      "C" : 72,
      "bottom" : "LE_block_16_expand_relu_output",
      "weights" : {

      },
      "pad_mode" : 1,
      "Nx" : 3,
      "pad_value" : 0,
      "Ny" : 3,
      "n_parallel" : 1
    },
    {
      "mode" : 4,
      "weights" : {
        "params_prelu" : 873
      },
      "top" : "Cont_block_16_depthwise_relu_output",
      "type" : "activation",
      "name" : "Cont_block_16_depthwise_relu",
      "bottom" : "Cont_block_16_depthwise_BN_output"
    },
    {
      "mode" : 4,
      "weights" : {
        "params_prelu" : 875
      },
      "top" : "Lips_block_16_depthwise_relu_output",
      "type" : "activation",
      "name" : "Lips_block_16_depthwise_relu",
      "bottom" : "Lips_block_16_depthwise_BN_output"
    },
    {
      "mode" : 4,
      "weights" : {
        "params_prelu" : 877
      },
      "top" : "RE_block_16_depthwise_relu_output",
      "type" : "activation",
      "name" : "RE_block_16_depthwise_relu",
      "bottom" : "RE_block_16_depthwise_BN_output"
    },
    {
      "mode" : 4,
      "weights" : {
        "params_prelu" : 879
      },
      "top" : "LE_block_16_depthwise_relu_output",
      "type" : "activation",
      "name" : "LE_block_16_depthwise_relu",
      "bottom" : "LE_block_16_depthwise_BN_output"
    },
    {
      "pad_r" : 0,
      "fused_relu" : 0,
      "fused_tanh" : 0,
      "pad_fill_mode" : 0,
      "pad_b" : 0,
      "pad_l" : 0,
      "top" : "Cont_block_16_project_BN_output",
      "blob_weights" : 883,
      "K" : 72,
      "blob_biases" : 881,
      "name" : "Cont_block_16_project",
      "has_batch_norm" : 0,
      "type" : "convolution",
      "n_groups" : 1,
      "pad_t" : 0,
      "has_biases" : 1,
      "C" : 16,
      "bottom" : "Cont_block_16_depthwise_relu_output",
      "weights" : {

      },
      "pad_mode" : 1,
      "Nx" : 1,
      "pad_value" : 0,
      "Ny" : 1,
      "n_parallel" : 1
    },
    {
      "pad_r" : 0,
      "fused_relu" : 0,
      "fused_tanh" : 0,
      "pad_fill_mode" : 0,
      "pad_b" : 0,
      "pad_l" : 0,
      "top" : "Lips_block_16_project_BN_output",
      "blob_weights" : 887,
      "K" : 72,
      "blob_biases" : 885,
      "name" : "Lips_block_16_project",
      "has_batch_norm" : 0,
      "type" : "convolution",
      "n_groups" : 1,
      "pad_t" : 0,
      "has_biases" : 1,
      "C" : 16,
      "bottom" : "Lips_block_16_depthwise_relu_output",
      "weights" : {

      },
      "pad_mode" : 1,
      "Nx" : 1,
      "pad_value" : 0,
      "Ny" : 1,
      "n_parallel" : 1
    },
    {
      "pad_r" : 0,
      "fused_relu" : 0,
      "fused_tanh" : 0,
      "pad_fill_mode" : 0,
      "pad_b" : 0,
      "pad_l" : 0,
      "top" : "RE_block_16_project_BN_output",
      "blob_weights" : 891,
      "K" : 72,
      "blob_biases" : 889,
      "name" : "RE_block_16_project",
      "has_batch_norm" : 0,
      "type" : "convolution",
      "n_groups" : 1,
      "pad_t" : 0,
      "has_biases" : 1,
      "C" : 16,
      "bottom" : "RE_block_16_depthwise_relu_output",
      "weights" : {

      },
      "pad_mode" : 1,
      "Nx" : 1,
      "pad_value" : 0,
      "Ny" : 1,
      "n_parallel" : 1
    },
    {
      "pad_r" : 0,
      "fused_relu" : 0,
      "fused_tanh" : 0,
      "pad_fill_mode" : 0,
      "pad_b" : 0,
      "pad_l" : 0,
      "top" : "LE_block_16_project_BN_output",
      "blob_weights" : 895,
      "K" : 72,
      "blob_biases" : 893,
      "name" : "LE_block_16_project",
      "has_batch_norm" : 0,
      "type" : "convolution",
      "n_groups" : 1,
      "pad_t" : 0,
      "has_biases" : 1,
      "C" : 16,
      "bottom" : "LE_block_16_depthwise_relu_output",
      "weights" : {

      },
      "pad_mode" : 1,
      "Nx" : 1,
      "pad_value" : 0,
      "Ny" : 1,
      "n_parallel" : 1
    },
    {
      "pad_r" : 0,
      "fused_relu" : 0,
      "fused_tanh" : 0,
      "pad_fill_mode" : 0,
      "pad_b" : 0,
      "pad_l" : 0,
      "top" : "Cont_Conv_1_bn_output",
      "blob_weights" : 899,
      "K" : 16,
      "blob_biases" : 897,
      "name" : "Cont_Conv_1",
      "has_batch_norm" : 0,
      "type" : "convolution",
      "n_groups" : 1,
      "pad_t" : 0,
      "has_biases" : 1,
      "C" : 1280,
      "bottom" : "Cont_block_16_project_BN_output",
      "weights" : {

      },
      "pad_mode" : 0,
      "Nx" : 1,
      "pad_value" : 0,
      "Ny" : 1,
      "n_parallel" : 1
    },
    {
      "pad_r" : 0,
      "fused_relu" : 0,
      "fused_tanh" : 0,
      "pad_fill_mode" : 0,
      "pad_b" : 0,
      "pad_l" : 0,
      "top" : "Lips_Conv_1_bn_output",
      "blob_weights" : 903,
      "K" : 16,
      "blob_biases" : 901,
      "name" : "Lips_Conv_1",
      "has_batch_norm" : 0,
      "type" : "convolution",
      "n_groups" : 1,
      "pad_t" : 0,
      "has_biases" : 1,
      "C" : 1280,
      "bottom" : "Lips_block_16_project_BN_output",
      "weights" : {

      },
      "pad_mode" : 0,
      "Nx" : 1,
      "pad_value" : 0,
      "Ny" : 1,
      "n_parallel" : 1
    },
    {
      "pad_r" : 0,
      "fused_relu" : 0,
      "fused_tanh" : 0,
      "pad_fill_mode" : 0,
      "pad_b" : 0,
      "pad_l" : 0,
      "top" : "RE_Conv_1_bn_output",
      "blob_weights" : 907,
      "K" : 16,
      "blob_biases" : 905,
      "name" : "RE_Conv_1",
      "has_batch_norm" : 0,
      "type" : "convolution",
      "n_groups" : 1,
      "pad_t" : 0,
      "has_biases" : 1,
      "C" : 1280,
      "bottom" : "RE_block_16_project_BN_output",
      "weights" : {

      },
      "pad_mode" : 0,
      "Nx" : 1,
      "pad_value" : 0,
      "Ny" : 1,
      "n_parallel" : 1
    },
    {
      "pad_r" : 0,
      "fused_relu" : 0,
      "fused_tanh" : 0,
      "pad_fill_mode" : 0,
      "pad_b" : 0,
      "pad_l" : 0,
      "top" : "LE_Conv_1_bn_output",
      "blob_weights" : 911,
      "K" : 16,
      "blob_biases" : 909,
      "name" : "LE_Conv_1",
      "has_batch_norm" : 0,
      "type" : "convolution",
      "n_groups" : 1,
      "pad_t" : 0,
      "has_biases" : 1,
      "C" : 1280,
      "bottom" : "LE_block_16_project_BN_output",
      "weights" : {

      },
      "pad_mode" : 0,
      "Nx" : 1,
      "pad_value" : 0,
      "Ny" : 1,
      "n_parallel" : 1
    },
    {
      "pad_r" : 0,
      "fused_relu" : 0,
      "fused_tanh" : 0,
      "pad_fill_mode" : 0,
      "pad_b" : 0,
      "pad_l" : 0,
      "top" : "Cont_detector_bn_output",
      "blob_weights" : 915,
      "K" : 16,
      "blob_biases" : 913,
      "name" : "Cont_detector_conv",
      "has_batch_norm" : 0,
      "type" : "convolution",
      "n_groups" : 1,
      "pad_t" : 0,
      "has_biases" : 1,
      "C" : 320,
      "bottom" : "Cont_block_16_project_BN_output",
      "weights" : {

      },
      "pad_mode" : 0,
      "Nx" : 1,
      "pad_value" : 0,
      "Ny" : 1,
      "n_parallel" : 1
    },
    {
      "mode" : 4,
      "weights" : {
        "params_prelu" : 917
      },
      "top" : "Cont_out_relu_output",
      "type" : "activation",
      "name" : "Cont_out_relu",
      "bottom" : "Cont_Conv_1_bn_output"
    },
    {
      "mode" : 4,
      "weights" : {
        "params_prelu" : 919
      },
      "top" : "Lips_out_relu_output",
      "type" : "activation",
      "name" : "Lips_out_relu",
      "bottom" : "Lips_Conv_1_bn_output"
    },
    {
      "mode" : 4,
      "weights" : {
        "params_prelu" : 921
      },
      "top" : "RE_out_relu_output",
      "type" : "activation",
      "name" : "RE_out_relu",
      "bottom" : "RE_Conv_1_bn_output"
    },
    {
      "mode" : 4,
      "weights" : {
        "params_prelu" : 923
      },
      "top" : "LE_out_relu_output",
      "type" : "activation",
      "name" : "LE_out_relu",
      "bottom" : "LE_Conv_1_bn_output"
    },
    {
      "mode" : 4,
      "weights" : {
        "params_prelu" : 925
      },
      "top" : "Cont_detector_prelu_output",
      "type" : "activation",
      "name" : "Cont_detector_prelu",
      "bottom" : "Cont_detector_bn_output"
    },
    {
      "pad_r" : 0,
      "pad_fill_mode" : 0,
      "pad_b" : 0,
      "pad_l" : 0,
      "top" : "global_average_pooling2d_7_output",
      "size_x" : 7,
      "is_global" : 1,
      "top_shape_style" : 0,
      "stride_x" : 1,
      "avg_or_max" : 0,
      "average_count_exclude_padding" : 1,
      "type" : "pool",
      "name" : "global_average_pooling2d_7",
      "pad_t" : 0,
      "stride_y" : 1,
      "bottom" : "Cont_out_relu_output",
      "weights" : {

      },
      "pad_mode" : 2,
      "size_y" : 7,
      "pad_value" : 0
    },
    {
      "pad_r" : 0,
      "pad_fill_mode" : 0,
      "pad_b" : 0,
      "pad_l" : 0,
      "top" : "global_average_pooling2d_8_output",
      "size_x" : 7,
      "is_global" : 1,
      "top_shape_style" : 0,
      "stride_x" : 1,
      "avg_or_max" : 0,
      "average_count_exclude_padding" : 1,
      "type" : "pool",
      "name" : "global_average_pooling2d_8",
      "pad_t" : 0,
      "stride_y" : 1,
      "bottom" : "Lips_out_relu_output",
      "weights" : {

      },
      "pad_mode" : 2,
      "size_y" : 7,
      "pad_value" : 0
    },
    {
      "pad_r" : 0,
      "pad_fill_mode" : 0,
      "pad_b" : 0,
      "pad_l" : 0,
      "top" : "global_average_pooling2d_9_output",
      "size_x" : 7,
      "is_global" : 1,
      "top_shape_style" : 0,
      "stride_x" : 1,
      "avg_or_max" : 0,
      "average_count_exclude_padding" : 1,
      "type" : "pool",
      "name" : "global_average_pooling2d_9",
      "pad_t" : 0,
      "stride_y" : 1,
      "bottom" : "RE_out_relu_output",
      "weights" : {

      },
      "pad_mode" : 2,
      "size_y" : 7,
      "pad_value" : 0
    },
    {
      "pad_r" : 0,
      "pad_fill_mode" : 0,
      "pad_b" : 0,
      "pad_l" : 0,
      "top" : "global_average_pooling2d_10_output",
      "size_x" : 7,
      "is_global" : 1,
      "top_shape_style" : 0,
      "stride_x" : 1,
      "avg_or_max" : 0,
      "average_count_exclude_padding" : 1,
      "type" : "pool",
      "name" : "global_average_pooling2d_10",
      "pad_t" : 0,
      "stride_y" : 1,
      "bottom" : "LE_out_relu_output",
      "weights" : {

      },
      "pad_mode" : 2,
      "size_y" : 7,
      "pad_value" : 0
    },
    {
      "pad_r" : 0,
      "pad_fill_mode" : 0,
      "pad_b" : 0,
      "pad_l" : 0,
      "top" : "global_average_pooling2d_6_output",
      "size_x" : 7,
      "is_global" : 1,
      "top_shape_style" : 0,
      "stride_x" : 1,
      "avg_or_max" : 0,
      "average_count_exclude_padding" : 1,
      "type" : "pool",
      "name" : "global_average_pooling2d_6",
      "pad_t" : 0,
      "stride_y" : 1,
      "bottom" : "Cont_detector_prelu_output",
      "weights" : {

      },
      "pad_mode" : 2,
      "size_y" : 7,
      "pad_value" : 0
    },
    {
      "nB" : 1280,
      "top" : "output1",
      "has_biases" : 1,
      "weights" : {

      },
      "nC" : 84,
      "blob_weights" : 929,
      "type" : "inner_product",
      "has_relu" : 0,
      "bottom" : "global_average_pooling2d_7_output",
      "blob_biases" : 927,
      "has_tanh" : 0,
      "name" : "Cont_lms",
      "has_prelu" : 0
    },
    {
      "nB" : 1280,
      "top" : "output2",
      "has_biases" : 1,
      "weights" : {

      },
      "nC" : 40,
      "blob_weights" : 933,
      "type" : "inner_product",
      "has_relu" : 0,
      "bottom" : "global_average_pooling2d_8_output",
      "blob_biases" : 931,
      "has_tanh" : 0,
      "name" : "Lips_lms",
      "has_prelu" : 0
    },
    {
      "nB" : 1280,
      "top" : "output3",
      "has_biases" : 1,
      "weights" : {

      },
      "nC" : 22,
      "blob_weights" : 937,
      "type" : "inner_product",
      "has_relu" : 0,
      "bottom" : "global_average_pooling2d_9_output",
      "blob_biases" : 935,
      "has_tanh" : 0,
      "name" : "RE_lms",
      "has_prelu" : 0
    },
    {
      "nB" : 1280,
      "top" : "output4",
      "has_biases" : 1,
      "weights" : {

      },
      "nC" : 22,
      "blob_weights" : 941,
      "type" : "inner_product",
      "has_relu" : 0,
      "bottom" : "global_average_pooling2d_10_output",
      "blob_biases" : 939,
      "has_tanh" : 0,
      "name" : "LE_lms",
      "has_prelu" : 0
    },
    {
      "nB" : 320,
      "top" : "detector_output",
      "has_biases" : 1,
      "weights" : {

      },
      "nC" : 2,
      "blob_weights" : 945,
      "type" : "inner_product",
      "has_relu" : 0,
      "bottom" : "global_average_pooling2d_6_output",
      "blob_biases" : 943,
      "has_tanh" : 0,
      "name" : "detector",
      "has_prelu" : 0
    },
    {
      "C" : 2,
      "weights" : {

      },
      "top" : "output5",
      "type" : "softmax",
      "name" : "detector__activation__",
      "bottom" : "detector_output"
    }
  ]
}